Top shape: 6 512 23 30 (2119680)
I0702 03:29:22.970791 22531 net.cpp:165] Memory required for data: 3629352960
I0702 03:29:22.970798 22531 layer_factory.hpp:77] Creating layer conv5_1_bn
I0702 03:29:22.970808 22531 net.cpp:100] Creating Layer conv5_1_bn
I0702 03:29:22.970814 22531 net.cpp:434] conv5_1_bn <- conv5_1
I0702 03:29:22.970823 22531 net.cpp:395] conv5_1_bn -> conv5_1 (in-place)
I0702 03:29:22.970973 22531 net.cpp:150] Setting up conv5_1_bn
I0702 03:29:22.970991 22531 net.cpp:157] Top shape: 6 512 23 30 (2119680)
I0702 03:29:22.970994 22531 net.cpp:165] Memory required for data: 3637831680
I0702 03:29:22.970999 22531 layer_factory.hpp:77] Creating layer relu5_1
I0702 03:29:22.971004 22531 net.cpp:100] Creating Layer relu5_1
I0702 03:29:22.971007 22531 net.cpp:434] relu5_1 <- conv5_1
I0702 03:29:22.971010 22531 net.cpp:395] relu5_1 -> conv5_1 (in-place)
I0702 03:29:22.971173 22531 net.cpp:150] Setting up relu5_1
I0702 03:29:22.971180 22531 net.cpp:157] Top shape: 6 512 23 30 (2119680)
I0702 03:29:22.971184 22531 net.cpp:165] Memory required for data: 3646310400
I0702 03:29:22.971186 22531 layer_factory.hpp:77] Creating layer conv5_2
I0702 03:29:22.971194 22531 net.cpp:100] Creating Layer conv5_2
I0702 03:29:22.971197 22531 net.cpp:434] conv5_2 <- conv5_1
I0702 03:29:22.971204 22531 net.cpp:408] conv5_2 -> conv5_2
I0702 03:29:23.026017 22531 net.cpp:150] Setting up conv5_2
I0702 03:29:23.026037 22531 net.cpp:157] Top shape: 6 512 23 30 (2119680)
I0702 03:29:23.026042 22531 net.cpp:165] Memory required for data: 3654789120
I0702 03:29:23.026051 22531 layer_factory.hpp:77] Creating layer conv5_2_bn
I0702 03:29:23.026063 22531 net.cpp:100] Creating Layer conv5_2_bn
I0702 03:29:23.026067 22531 net.cpp:434] conv5_2_bn <- conv5_2
I0702 03:29:23.026074 22531 net.cpp:395] conv5_2_bn -> conv5_2 (in-place)
I0702 03:29:23.026285 22531 net.cpp:150] Setting up conv5_2_bn
I0702 03:29:23.026294 22531 net.cpp:157] Top shape: 6 512 23 30 (2119680)
I0702 03:29:23.026298 22531 net.cpp:165] Memory required for data: 3663267840
I0702 03:29:23.026305 22531 layer_factory.hpp:77] Creating layer relu5_2
I0702 03:29:23.026312 22531 net.cpp:100] Creating Layer relu5_2
I0702 03:29:23.026316 22531 net.cpp:434] relu5_2 <- conv5_2
I0702 03:29:23.026320 22531 net.cpp:395] relu5_2 -> conv5_2 (in-place)
I0702 03:29:23.026510 22531 net.cpp:150] Setting up relu5_2
I0702 03:29:23.026520 22531 net.cpp:157] Top shape: 6 512 23 30 (2119680)
I0702 03:29:23.026525 22531 net.cpp:165] Memory required for data: 3671746560
I0702 03:29:23.026530 22531 layer_factory.hpp:77] Creating layer conv5_3
I0702 03:29:23.026541 22531 net.cpp:100] Creating Layer conv5_3
I0702 03:29:23.026546 22531 net.cpp:434] conv5_3 <- conv5_2
I0702 03:29:23.026556 22531 net.cpp:408] conv5_3 -> conv5_3
I0702 03:29:23.086647 22531 net.cpp:150] Setting up conv5_3
I0702 03:29:23.086664 22531 net.cpp:157] Top shape: 6 512 23 30 (2119680)
I0702 03:29:23.086668 22531 net.cpp:165] Memory required for data: 3680225280
I0702 03:29:23.086674 22531 layer_factory.hpp:77] Creating layer conv5_3_bn
I0702 03:29:23.086684 22531 net.cpp:100] Creating Layer conv5_3_bn
I0702 03:29:23.086688 22531 net.cpp:434] conv5_3_bn <- conv5_3
I0702 03:29:23.086694 22531 net.cpp:395] conv5_3_bn -> conv5_3 (in-place)
I0702 03:29:23.086866 22531 net.cpp:150] Setting up conv5_3_bn
I0702 03:29:23.086874 22531 net.cpp:157] Top shape: 6 512 23 30 (2119680)
I0702 03:29:23.086877 22531 net.cpp:165] Memory required for data: 3688704000
I0702 03:29:23.086884 22531 layer_factory.hpp:77] Creating layer relu5_3
I0702 03:29:23.086889 22531 net.cpp:100] Creating Layer relu5_3
I0702 03:29:23.086890 22531 net.cpp:434] relu5_3 <- conv5_3
I0702 03:29:23.086894 22531 net.cpp:395] relu5_3 -> conv5_3 (in-place)
I0702 03:29:23.087044 22531 net.cpp:150] Setting up relu5_3
I0702 03:29:23.087049 22531 net.cpp:157] Top shape: 6 512 23 30 (2119680)
I0702 03:29:23.087052 22531 net.cpp:165] Memory required for data: 3697182720
I0702 03:29:23.087055 22531 layer_factory.hpp:77] Creating layer pool5
I0702 03:29:23.087059 22531 layer_factory.cpp:91] cuDNN does not support multiple tops. Using Caffe's own pooling layer.
I0702 03:29:23.087062 22531 net.cpp:100] Creating Layer pool5
I0702 03:29:23.087065 22531 net.cpp:434] pool5 <- conv5_3
I0702 03:29:23.087070 22531 net.cpp:408] pool5 -> pool5
I0702 03:29:23.087075 22531 net.cpp:408] pool5 -> pool5_mask
I0702 03:29:23.087110 22531 net.cpp:150] Setting up pool5
I0702 03:29:23.087117 22531 net.cpp:157] Top shape: 6 512 12 15 (552960)
I0702 03:29:23.087123 22531 net.cpp:157] Top shape: 6 512 12 15 (552960)
I0702 03:29:23.087141 22531 net.cpp:165] Memory required for data: 3701606400
I0702 03:29:23.087146 22531 layer_factory.hpp:77] Creating layer upsample5
I0702 03:29:23.087152 22531 net.cpp:100] Creating Layer upsample5
I0702 03:29:23.087157 22531 net.cpp:434] upsample5 <- pool5
I0702 03:29:23.087160 22531 net.cpp:434] upsample5 <- pool5_mask
I0702 03:29:23.087165 22531 net.cpp:408] upsample5 -> pool5_D
I0702 03:29:23.087188 22531 net.cpp:150] Setting up upsample5
I0702 03:29:23.087191 22531 net.cpp:157] Top shape: 6 512 23 30 (2119680)
I0702 03:29:23.087193 22531 net.cpp:165] Memory required for data: 3710085120
I0702 03:29:23.087196 22531 layer_factory.hpp:77] Creating layer conv5_3_D
I0702 03:29:23.087203 22531 net.cpp:100] Creating Layer conv5_3_D
I0702 03:29:23.087206 22531 net.cpp:434] conv5_3_D <- pool5_D
I0702 03:29:23.087211 22531 net.cpp:408] conv5_3_D -> conv5_3_D
I0702 03:29:23.146178 22531 net.cpp:150] Setting up conv5_3_D
I0702 03:29:23.146195 22531 net.cpp:157] Top shape: 6 512 23 30 (2119680)
I0702 03:29:23.146198 22531 net.cpp:165] Memory required for data: 3718563840
I0702 03:29:23.146204 22531 layer_factory.hpp:77] Creating layer conv5_3_D_bn
I0702 03:29:23.146212 22531 net.cpp:100] Creating Layer conv5_3_D_bn
I0702 03:29:23.146216 22531 net.cpp:434] conv5_3_D_bn <- conv5_3_D
I0702 03:29:23.146222 22531 net.cpp:395] conv5_3_D_bn -> conv5_3_D (in-place)
I0702 03:29:23.146375 22531 net.cpp:150] Setting up conv5_3_D_bn
I0702 03:29:23.146379 22531 net.cpp:157] Top shape: 6 512 23 30 (2119680)
I0702 03:29:23.146383 22531 net.cpp:165] Memory required for data: 3727042560
I0702 03:29:23.146386 22531 layer_factory.hpp:77] Creating layer relu5_3_D
I0702 03:29:23.146391 22531 net.cpp:100] Creating Layer relu5_3_D
I0702 03:29:23.146394 22531 net.cpp:434] relu5_3_D <- conv5_3_D
I0702 03:29:23.146399 22531 net.cpp:395] relu5_3_D -> conv5_3_D (in-place)
I0702 03:29:23.146525 22531 net.cpp:150] Setting up relu5_3_D
I0702 03:29:23.146531 22531 net.cpp:157] Top shape: 6 512 23 30 (2119680)
I0702 03:29:23.146533 22531 net.cpp:165] Memory required for data: 3735521280
I0702 03:29:23.146536 22531 layer_factory.hpp:77] Creating layer conv5_2_D
I0702 03:29:23.146544 22531 net.cpp:100] Creating Layer conv5_2_D
I0702 03:29:23.146548 22531 net.cpp:434] conv5_2_D <- conv5_3_D
I0702 03:29:23.146553 22531 net.cpp:408] conv5_2_D -> conv5_2_D
I0702 03:29:23.196362 22531 net.cpp:150] Setting up conv5_2_D
I0702 03:29:23.196380 22531 net.cpp:157] Top shape: 6 512 23 30 (2119680)
I0702 03:29:23.196383 22531 net.cpp:165] Memory required for data: 3744000000
I0702 03:29:23.196389 22531 layer_factory.hpp:77] Creating layer conv5_2_D_bn
I0702 03:29:23.196398 22531 net.cpp:100] Creating Layer conv5_2_D_bn
I0702 03:29:23.196403 22531 net.cpp:434] conv5_2_D_bn <- conv5_2_D
I0702 03:29:23.196408 22531 net.cpp:395] conv5_2_D_bn -> conv5_2_D (in-place)
I0702 03:29:23.196557 22531 net.cpp:150] Setting up conv5_2_D_bn
I0702 03:29:23.196561 22531 net.cpp:157] Top shape: 6 512 23 30 (2119680)
I0702 03:29:23.196564 22531 net.cpp:165] Memory required for data: 3752478720
I0702 03:29:23.196569 22531 layer_factory.hpp:77] Creating layer relu5_2_D
I0702 03:29:23.196575 22531 net.cpp:100] Creating Layer relu5_2_D
I0702 03:29:23.196578 22531 net.cpp:434] relu5_2_D <- conv5_2_D
I0702 03:29:23.196581 22531 net.cpp:395] relu5_2_D -> conv5_2_D (in-place)
I0702 03:29:23.197211 22531 net.cpp:150] Setting up relu5_2_D
I0702 03:29:23.197221 22531 net.cpp:157] Top shape: 6 512 23 30 (2119680)
I0702 03:29:23.197223 22531 net.cpp:165] Memory required for data: 3760957440
I0702 03:29:23.197227 22531 layer_factory.hpp:77] Creating layer conv5_1_D
I0702 03:29:23.197234 22531 net.cpp:100] Creating Layer conv5_1_D
I0702 03:29:23.197237 22531 net.cpp:434] conv5_1_D <- conv5_2_D
I0702 03:29:23.197242 22531 net.cpp:408] conv5_1_D -> conv5_1_D
I0702 03:29:23.245954 22531 net.cpp:150] Setting up conv5_1_D
I0702 03:29:23.245971 22531 net.cpp:157] Top shape: 6 512 23 30 (2119680)
I0702 03:29:23.245975 22531 net.cpp:165] Memory required for data: 3769436160
I0702 03:29:23.245995 22531 layer_factory.hpp:77] Creating layer conv5_1_D_bn
I0702 03:29:23.246004 22531 net.cpp:100] Creating Layer conv5_1_D_bn
I0702 03:29:23.246008 22531 net.cpp:434] conv5_1_D_bn <- conv5_1_D
I0702 03:29:23.246016 22531 net.cpp:395] conv5_1_D_bn -> conv5_1_D (in-place)
I0702 03:29:23.246173 22531 net.cpp:150] Setting up conv5_1_D_bn
I0702 03:29:23.246177 22531 net.cpp:157] Top shape: 6 512 23 30 (2119680)
I0702 03:29:23.246181 22531 net.cpp:165] Memory required for data: 3777914880
I0702 03:29:23.246186 22531 layer_factory.hpp:77] Creating layer relu5_1_D
I0702 03:29:23.246191 22531 net.cpp:100] Creating Layer relu5_1_D
I0702 03:29:23.246193 22531 net.cpp:434] relu5_1_D <- conv5_1_D
I0702 03:29:23.246197 22531 net.cpp:395] relu5_1_D -> conv5_1_D (in-place)
I0702 03:29:23.246325 22531 net.cpp:150] Setting up relu5_1_D
I0702 03:29:23.246330 22531 net.cpp:157] Top shape: 6 512 23 30 (2119680)
I0702 03:29:23.246332 22531 net.cpp:165] Memory required for data: 3786393600
I0702 03:29:23.246335 22531 layer_factory.hpp:77] Creating layer upsample4
I0702 03:29:23.246340 22531 net.cpp:100] Creating Layer upsample4
I0702 03:29:23.246341 22531 net.cpp:434] upsample4 <- conv5_1_D
I0702 03:29:23.246345 22531 net.cpp:434] upsample4 <- pool4_mask
I0702 03:29:23.246348 22531 net.cpp:408] upsample4 -> pool4_D
I0702 03:29:23.246371 22531 net.cpp:150] Setting up upsample4
I0702 03:29:23.246376 22531 net.cpp:157] Top shape: 6 512 45 60 (8294400)
I0702 03:29:23.246377 22531 net.cpp:165] Memory required for data: 3819571200
I0702 03:29:23.246381 22531 layer_factory.hpp:77] Creating layer conv4_3_D
I0702 03:29:23.246388 22531 net.cpp:100] Creating Layer conv4_3_D
I0702 03:29:23.246392 22531 net.cpp:434] conv4_3_D <- pool4_D
I0702 03:29:23.246397 22531 net.cpp:408] conv4_3_D -> conv4_3_D
I0702 03:29:23.294956 22531 net.cpp:150] Setting up conv4_3_D
I0702 03:29:23.294972 22531 net.cpp:157] Top shape: 6 512 45 60 (8294400)
I0702 03:29:23.294976 22531 net.cpp:165] Memory required for data: 3852748800
I0702 03:29:23.294991 22531 layer_factory.hpp:77] Creating layer conv4_3_D_bn
I0702 03:29:23.295001 22531 net.cpp:100] Creating Layer conv4_3_D_bn
I0702 03:29:23.295006 22531 net.cpp:434] conv4_3_D_bn <- conv4_3_D
I0702 03:29:23.295009 22531 net.cpp:395] conv4_3_D_bn -> conv4_3_D (in-place)
I0702 03:29:23.295172 22531 net.cpp:150] Setting up conv4_3_D_bn
I0702 03:29:23.295176 22531 net.cpp:157] Top shape: 6 512 45 60 (8294400)
I0702 03:29:23.295179 22531 net.cpp:165] Memory required for data: 3885926400
I0702 03:29:23.295183 22531 layer_factory.hpp:77] Creating layer relu4_3_D
I0702 03:29:23.295188 22531 net.cpp:100] Creating Layer relu4_3_D
I0702 03:29:23.295192 22531 net.cpp:434] relu4_3_D <- conv4_3_D
I0702 03:29:23.295194 22531 net.cpp:395] relu4_3_D -> conv4_3_D (in-place)
I0702 03:29:23.295326 22531 net.cpp:150] Setting up relu4_3_D
I0702 03:29:23.295331 22531 net.cpp:157] Top shape: 6 512 45 60 (8294400)
I0702 03:29:23.295334 22531 net.cpp:165] Memory required for data: 3919104000
I0702 03:29:23.295337 22531 layer_factory.hpp:77] Creating layer conv4_2_D
I0702 03:29:23.295344 22531 net.cpp:100] Creating Layer conv4_2_D
I0702 03:29:23.295347 22531 net.cpp:434] conv4_2_D <- conv4_3_D
I0702 03:29:23.295352 22531 net.cpp:408] conv4_2_D -> conv4_2_D
I0702 03:29:23.344082 22531 net.cpp:150] Setting up conv4_2_D
I0702 03:29:23.344099 22531 net.cpp:157] Top shape: 6 512 45 60 (8294400)
I0702 03:29:23.344101 22531 net.cpp:165] Memory required for data: 3952281600
I0702 03:29:23.344108 22531 layer_factory.hpp:77] Creating layer conv4_2_D_bn
I0702 03:29:23.344122 22531 net.cpp:100] Creating Layer conv4_2_D_bn
I0702 03:29:23.344127 22531 net.cpp:434] conv4_2_D_bn <- conv4_2_D
I0702 03:29:23.344132 22531 net.cpp:395] conv4_2_D_bn -> conv4_2_D (in-place)
I0702 03:29:23.344291 22531 net.cpp:150] Setting up conv4_2_D_bn
I0702 03:29:23.344296 22531 net.cpp:157] Top shape: 6 512 45 60 (8294400)
I0702 03:29:23.344298 22531 net.cpp:165] Memory required for data: 3985459200
I0702 03:29:23.344303 22531 layer_factory.hpp:77] Creating layer relu4_2_D
I0702 03:29:23.344321 22531 net.cpp:100] Creating Layer relu4_2_D
I0702 03:29:23.344324 22531 net.cpp:434] relu4_2_D <- conv4_2_D
I0702 03:29:23.344329 22531 net.cpp:395] relu4_2_D -> conv4_2_D (in-place)
I0702 03:29:23.344458 22531 net.cpp:150] Setting up relu4_2_D
I0702 03:29:23.344465 22531 net.cpp:157] Top shape: 6 512 45 60 (8294400)
I0702 03:29:23.344467 22531 net.cpp:165] Memory required for data: 4018636800
I0702 03:29:23.344470 22531 layer_factory.hpp:77] Creating layer conv4_1_D
I0702 03:29:23.344477 22531 net.cpp:100] Creating Layer conv4_1_D
I0702 03:29:23.344480 22531 net.cpp:434] conv4_1_D <- conv4_2_D
I0702 03:29:23.344485 22531 net.cpp:408] conv4_1_D -> conv4_1_D
I0702 03:29:23.374542 22531 net.cpp:150] Setting up conv4_1_D
I0702 03:29:23.374563 22531 net.cpp:157] Top shape: 6 256 45 60 (4147200)
I0702 03:29:23.374568 22531 net.cpp:165] Memory required for data: 4035225600
I0702 03:29:23.374579 22531 layer_factory.hpp:77] Creating layer conv4_1_D_bn
I0702 03:29:23.374593 22531 net.cpp:100] Creating Layer conv4_1_D_bn
I0702 03:29:23.374599 22531 net.cpp:434] conv4_1_D_bn <- conv4_1_D
I0702 03:29:23.374608 22531 net.cpp:395] conv4_1_D_bn -> conv4_1_D (in-place)
I0702 03:29:23.374856 22531 net.cpp:150] Setting up conv4_1_D_bn
I0702 03:29:23.374866 22531 net.cpp:157] Top shape: 6 256 45 60 (4147200)
I0702 03:29:23.374871 22531 net.cpp:165] Memory required for data: 4051814400
I0702 03:29:23.374877 22531 layer_factory.hpp:77] Creating layer relu4_1_D
I0702 03:29:23.374886 22531 net.cpp:100] Creating Layer relu4_1_D
I0702 03:29:23.374891 22531 net.cpp:434] relu4_1_D <- conv4_1_D
I0702 03:29:23.374894 22531 net.cpp:395] relu4_1_D -> conv4_1_D (in-place)
I0702 03:29:23.375075 22531 net.cpp:150] Setting up relu4_1_D
I0702 03:29:23.375085 22531 net.cpp:157] Top shape: 6 256 45 60 (4147200)
I0702 03:29:23.375089 22531 net.cpp:165] Memory required for data: 4068403200
I0702 03:29:23.375092 22531 layer_factory.hpp:77] Creating layer upsample3
I0702 03:29:23.375099 22531 net.cpp:100] Creating Layer upsample3
I0702 03:29:23.375103 22531 net.cpp:434] upsample3 <- conv4_1_D
I0702 03:29:23.375108 22531 net.cpp:434] upsample3 <- pool3_mask
I0702 03:29:23.375113 22531 net.cpp:408] upsample3 -> pool3_D
I0702 03:29:23.375120 22531 upsample_layer.cpp:27] Params 'pad_out_{}_' are deprecated. Please declare upsample height and width useing the upsample_h, upsample_w parameters.
I0702 03:29:23.375145 22531 net.cpp:150] Setting up upsample3
I0702 03:29:23.375151 22531 net.cpp:157] Top shape: 6 256 90 120 (16588800)
I0702 03:29:23.375154 22531 net.cpp:165] Memory required for data: 4134758400
I0702 03:29:23.375159 22531 layer_factory.hpp:77] Creating layer conv3_3_D
I0702 03:29:23.375169 22531 net.cpp:100] Creating Layer conv3_3_D
I0702 03:29:23.375174 22531 net.cpp:434] conv3_3_D <- pool3_D
I0702 03:29:23.375178 22531 net.cpp:408] conv3_3_D -> conv3_3_D
I0702 03:29:23.393239 22531 net.cpp:150] Setting up conv3_3_D
I0702 03:29:23.393256 22531 net.cpp:157] Top shape: 6 256 90 120 (16588800)
I0702 03:29:23.393260 22531 net.cpp:165] Memory required for data: 4201113600
I0702 03:29:23.393268 22531 layer_factory.hpp:77] Creating layer conv3_3_D_bn
I0702 03:29:23.393278 22531 net.cpp:100] Creating Layer conv3_3_D_bn
I0702 03:29:23.393283 22531 net.cpp:434] conv3_3_D_bn <- conv3_3_D
I0702 03:29:23.393290 22531 net.cpp:395] conv3_3_D_bn -> conv3_3_D (in-place)
I0702 03:29:23.393523 22531 net.cpp:150] Setting up conv3_3_D_bn
I0702 03:29:23.393532 22531 net.cpp:157] Top shape: 6 256 90 120 (16588800)
I0702 03:29:23.393537 22531 net.cpp:165] Memory required for data: 4267468800
I0702 03:29:23.393545 22531 layer_factory.hpp:77] Creating layer relu3_3_D
I0702 03:29:23.393553 22531 net.cpp:100] Creating Layer relu3_3_D
I0702 03:29:23.393558 22531 net.cpp:434] relu3_3_D <- conv3_3_D
I0702 03:29:23.393564 22531 net.cpp:395] relu3_3_D -> conv3_3_D (in-place)
I0702 03:29:23.393755 22531 net.cpp:150] Setting up relu3_3_D
I0702 03:29:23.393766 22531 net.cpp:157] Top shape: 6 256 90 120 (16588800)
I0702 03:29:23.393770 22531 net.cpp:165] Memory required for data: 4333824000
I0702 03:29:23.393792 22531 layer_factory.hpp:77] Creating layer conv3_2_D
I0702 03:29:23.393805 22531 net.cpp:100] Creating Layer conv3_2_D
I0702 03:29:23.393810 22531 net.cpp:434] conv3_2_D <- conv3_3_D
I0702 03:29:23.393816 22531 net.cpp:408] conv3_2_D -> conv3_2_D
I0702 03:29:23.411150 22531 net.cpp:150] Setting up conv3_2_D
I0702 03:29:23.411168 22531 net.cpp:157] Top shape: 6 256 90 120 (16588800)
I0702 03:29:23.411171 22531 net.cpp:165] Memory required for data: 4400179200
I0702 03:29:23.411177 22531 layer_factory.hpp:77] Creating layer conv3_2_D_bn
I0702 03:29:23.411185 22531 net.cpp:100] Creating Layer conv3_2_D_bn
I0702 03:29:23.411188 22531 net.cpp:434] conv3_2_D_bn <- conv3_2_D
I0702 03:29:23.411195 22531 net.cpp:395] conv3_2_D_bn -> conv3_2_D (in-place)
I0702 03:29:23.411394 22531 net.cpp:150] Setting up conv3_2_D_bn
I0702 03:29:23.411399 22531 net.cpp:157] Top shape: 6 256 90 120 (16588800)
I0702 03:29:23.411401 22531 net.cpp:165] Memory required for data: 4466534400
I0702 03:29:23.411418 22531 layer_factory.hpp:77] Creating layer relu3_2_D
I0702 03:29:23.411422 22531 net.cpp:100] Creating Layer relu3_2_D
I0702 03:29:23.411437 22531 net.cpp:434] relu3_2_D <- conv3_2_D
I0702 03:29:23.411442 22531 net.cpp:395] relu3_2_D -> conv3_2_D (in-place)
I0702 03:29:23.412252 22531 net.cpp:150] Setting up relu3_2_D
I0702 03:29:23.412263 22531 net.cpp:157] Top shape: 6 256 90 120 (16588800)
I0702 03:29:23.412268 22531 net.cpp:165] Memory required for data: 4532889600
I0702 03:29:23.412273 22531 layer_factory.hpp:77] Creating layer conv3_1_D
I0702 03:29:23.412286 22531 net.cpp:100] Creating Layer conv3_1_D
I0702 03:29:23.412292 22531 net.cpp:434] conv3_1_D <- conv3_2_D
I0702 03:29:23.412300 22531 net.cpp:408] conv3_1_D -> conv3_1_D
I0702 03:29:23.421174 22531 net.cpp:150] Setting up conv3_1_D
I0702 03:29:23.421188 22531 net.cpp:157] Top shape: 6 128 90 120 (8294400)
I0702 03:29:23.421191 22531 net.cpp:165] Memory required for data: 4566067200
I0702 03:29:23.421200 22531 layer_factory.hpp:77] Creating layer conv3_1_D_bn
I0702 03:29:23.421207 22531 net.cpp:100] Creating Layer conv3_1_D_bn
I0702 03:29:23.421211 22531 net.cpp:434] conv3_1_D_bn <- conv3_1_D
I0702 03:29:23.421218 22531 net.cpp:395] conv3_1_D_bn -> conv3_1_D (in-place)
I0702 03:29:23.421396 22531 net.cpp:150] Setting up conv3_1_D_bn
I0702 03:29:23.421401 22531 net.cpp:157] Top shape: 6 128 90 120 (8294400)
I0702 03:29:23.421403 22531 net.cpp:165] Memory required for data: 4599244800
I0702 03:29:23.421408 22531 layer_factory.hpp:77] Creating layer relu3_1_D
I0702 03:29:23.421413 22531 net.cpp:100] Creating Layer relu3_1_D
I0702 03:29:23.421416 22531 net.cpp:434] relu3_1_D <- conv3_1_D
I0702 03:29:23.421419 22531 net.cpp:395] relu3_1_D -> conv3_1_D (in-place)
I0702 03:29:23.421551 22531 net.cpp:150] Setting up relu3_1_D
I0702 03:29:23.421557 22531 net.cpp:157] Top shape: 6 128 90 120 (8294400)
I0702 03:29:23.421560 22531 net.cpp:165] Memory required for data: 4632422400
I0702 03:29:23.421562 22531 layer_factory.hpp:77] Creating layer upsample2
I0702 03:29:23.421567 22531 net.cpp:100] Creating Layer upsample2
I0702 03:29:23.421571 22531 net.cpp:434] upsample2 <- conv3_1_D
I0702 03:29:23.421574 22531 net.cpp:434] upsample2 <- pool2_mask
I0702 03:29:23.421581 22531 net.cpp:408] upsample2 -> pool2_D
I0702 03:29:23.421591 22531 upsample_layer.cpp:27] Params 'pad_out_{}_' are deprecated. Please declare upsample height and width useing the upsample_h, upsample_w parameters.
I0702 03:29:23.421613 22531 net.cpp:150] Setting up upsample2
I0702 03:29:23.421622 22531 net.cpp:157] Top shape: 6 128 180 240 (33177600)
I0702 03:29:23.421625 22531 net.cpp:165] Memory required for data: 4765132800
I0702 03:29:23.421627 22531 layer_factory.hpp:77] Creating layer conv2_2_D
I0702 03:29:23.421635 22531 net.cpp:100] Creating Layer conv2_2_D
I0702 03:29:23.421638 22531 net.cpp:434] conv2_2_D <- pool2_D
I0702 03:29:23.421643 22531 net.cpp:408] conv2_2_D -> conv2_2_D
I0702 03:29:23.426447 22531 net.cpp:150] Setting up conv2_2_D
I0702 03:29:23.426471 22531 net.cpp:157] Top shape: 6 128 180 240 (33177600)
I0702 03:29:23.426475 22531 net.cpp:165] Memory required for data: 4897843200
I0702 03:29:23.426481 22531 layer_factory.hpp:77] Creating layer conv2_2_D_bn
I0702 03:29:23.426489 22531 net.cpp:100] Creating Layer conv2_2_D_bn
I0702 03:29:23.426492 22531 net.cpp:434] conv2_2_D_bn <- conv2_2_D
I0702 03:29:23.426498 22531 net.cpp:395] conv2_2_D_bn -> conv2_2_D (in-place)
I0702 03:29:23.426693 22531 net.cpp:150] Setting up conv2_2_D_bn
I0702 03:29:23.426698 22531 net.cpp:157] Top shape: 6 128 180 240 (33177600)
I0702 03:29:23.426702 22531 net.cpp:165] Memory required for data: 5030553600
I0702 03:29:23.426705 22531 layer_factory.hpp:77] Creating layer relu2_2_D
I0702 03:29:23.426712 22531 net.cpp:100] Creating Layer relu2_2_D
I0702 03:29:23.426714 22531 net.cpp:434] relu2_2_D <- conv2_2_D
I0702 03:29:23.426717 22531 net.cpp:395] relu2_2_D -> conv2_2_D (in-place)
I0702 03:29:23.426856 22531 net.cpp:150] Setting up relu2_2_D
I0702 03:29:23.426864 22531 net.cpp:157] Top shape: 6 128 180 240 (33177600)
I0702 03:29:23.426867 22531 net.cpp:165] Memory required for data: 5163264000
I0702 03:29:23.426870 22531 layer_factory.hpp:77] Creating layer conv2_1_D
I0702 03:29:23.426877 22531 net.cpp:100] Creating Layer conv2_1_D
I0702 03:29:23.426879 22531 net.cpp:434] conv2_1_D <- conv2_2_D
I0702 03:29:23.426884 22531 net.cpp:408] conv2_1_D -> conv2_1_D
I0702 03:29:23.430228 22531 net.cpp:150] Setting up conv2_1_D
I0702 03:29:23.430239 22531 net.cpp:157] Top shape: 6 64 180 240 (16588800)
I0702 03:29:23.430243 22531 net.cpp:165] Memory required for data: 5229619200
I0702 03:29:23.430248 22531 layer_factory.hpp:77] Creating layer conv2_1_D_bn
I0702 03:29:23.430255 22531 net.cpp:100] Creating Layer conv2_1_D_bn
I0702 03:29:23.430258 22531 net.cpp:434] conv2_1_D_bn <- conv2_1_D
I0702 03:29:23.430263 22531 net.cpp:395] conv2_1_D_bn -> conv2_1_D (in-place)
I0702 03:29:23.431089 22531 net.cpp:150] Setting up conv2_1_D_bn
I0702 03:29:23.431098 22531 net.cpp:157] Top shape: 6 64 180 240 (16588800)
I0702 03:29:23.431102 22531 net.cpp:165] Memory required for data: 5295974400
I0702 03:29:23.431107 22531 layer_factory.hpp:77] Creating layer relu2_1_D
I0702 03:29:23.431113 22531 net.cpp:100] Creating Layer relu2_1_D
I0702 03:29:23.431115 22531 net.cpp:434] relu2_1_D <- conv2_1_D
I0702 03:29:23.431120 22531 net.cpp:395] relu2_1_D -> conv2_1_D (in-place)
I0702 03:29:23.431264 22531 net.cpp:150] Setting up relu2_1_D
I0702 03:29:23.431270 22531 net.cpp:157] Top shape: 6 64 180 240 (16588800)
I0702 03:29:23.431272 22531 net.cpp:165] Memory required for data: 5362329600
I0702 03:29:23.431275 22531 layer_factory.hpp:77] Creating layer upsample1
I0702 03:29:23.431282 22531 net.cpp:100] Creating Layer upsample1
I0702 03:29:23.431285 22531 net.cpp:434] upsample1 <- conv2_1_D
I0702 03:29:23.431288 22531 net.cpp:434] upsample1 <- pool1_mask
I0702 03:29:23.431293 22531 net.cpp:408] upsample1 -> pool1_D
I0702 03:29:23.431298 22531 upsample_layer.cpp:27] Params 'pad_out_{}_' are deprecated. Please declare upsample height and width useing the upsample_h, upsample_w parameters.
I0702 03:29:23.431318 22531 net.cpp:150] Setting up upsample1
I0702 03:29:23.431322 22531 net.cpp:157] Top shape: 6 64 360 480 (66355200)
I0702 03:29:23.431324 22531 net.cpp:165] Memory required for data: 5627750400
I0702 03:29:23.431327 22531 layer_factory.hpp:77] Creating layer conv1_2_D
I0702 03:29:23.431335 22531 net.cpp:100] Creating Layer conv1_2_D
I0702 03:29:23.431339 22531 net.cpp:434] conv1_2_D <- pool1_D
I0702 03:29:23.431344 22531 net.cpp:408] conv1_2_D -> conv1_2_D
I0702 03:29:23.433917 22531 net.cpp:150] Setting up conv1_2_D
I0702 03:29:23.433928 22531 net.cpp:157] Top shape: 6 64 360 480 (66355200)
I0702 03:29:23.433931 22531 net.cpp:165] Memory required for data: 5893171200
I0702 03:29:23.433938 22531 layer_factory.hpp:77] Creating layer conv1_2_D_bn
I0702 03:29:23.433945 22531 net.cpp:100] Creating Layer conv1_2_D_bn
I0702 03:29:23.433949 22531 net.cpp:434] conv1_2_D_bn <- conv1_2_D
I0702 03:29:23.433954 22531 net.cpp:395] conv1_2_D_bn -> conv1_2_D (in-place)
I0702 03:29:23.434232 22531 net.cpp:150] Setting up conv1_2_D_bn
I0702 03:29:23.434237 22531 net.cpp:157] Top shape: 6 64 360 480 (66355200)
I0702 03:29:23.434240 22531 net.cpp:165] Memory required for data: 6158592000
I0702 03:29:23.434244 22531 layer_factory.hpp:77] Creating layer relu1_2_D
I0702 03:29:23.434249 22531 net.cpp:100] Creating Layer relu1_2_D
I0702 03:29:23.434252 22531 net.cpp:434] relu1_2_D <- conv1_2_D
I0702 03:29:23.434255 22531 net.cpp:395] relu1_2_D -> conv1_2_D (in-place)
I0702 03:29:23.434399 22531 net.cpp:150] Setting up relu1_2_D
I0702 03:29:23.434404 22531 net.cpp:157] Top shape: 6 64 360 480 (66355200)
I0702 03:29:23.434407 22531 net.cpp:165] Memory required for data: 6424012800
I0702 03:29:23.434409 22531 layer_factory.hpp:77] Creating layer conv1_1_D
I0702 03:29:23.434417 22531 net.cpp:100] Creating Layer conv1_1_D
I0702 03:29:23.434420 22531 net.cpp:434] conv1_1_D <- conv1_2_D
I0702 03:29:23.434425 22531 net.cpp:408] conv1_1_D -> conv1_1_D
I0702 03:29:23.436477 22531 net.cpp:150] Setting up conv1_1_D
I0702 03:29:23.436491 22531 net.cpp:157] Top shape: 6 3 360 480 (3110400)
I0702 03:29:23.436494 22531 net.cpp:165] Memory required for data: 6436454400
I0702 03:29:23.436502 22531 layer_factory.hpp:77] Creating layer conv1_1_D_conv1_1_D_0_split
I0702 03:29:23.436511 22531 net.cpp:100] Creating Layer conv1_1_D_conv1_1_D_0_split
I0702 03:29:23.436517 22531 net.cpp:434] conv1_1_D_conv1_1_D_0_split <- conv1_1_D
I0702 03:29:23.436522 22531 net.cpp:408] conv1_1_D_conv1_1_D_0_split -> conv1_1_D_conv1_1_D_0_split_0
I0702 03:29:23.436529 22531 net.cpp:408] conv1_1_D_conv1_1_D_0_split -> conv1_1_D_conv1_1_D_0_split_1
I0702 03:29:23.436570 22531 net.cpp:150] Setting up conv1_1_D_conv1_1_D_0_split
I0702 03:29:23.436575 22531 net.cpp:157] Top shape: 6 3 360 480 (3110400)
I0702 03:29:23.436578 22531 net.cpp:157] Top shape: 6 3 360 480 (3110400)
I0702 03:29:23.436580 22531 net.cpp:165] Memory required for data: 6461337600
I0702 03:29:23.436583 22531 layer_factory.hpp:77] Creating layer loss
I0702 03:29:23.436594 22531 net.cpp:100] Creating Layer loss
I0702 03:29:23.436595 22531 net.cpp:434] loss <- conv1_1_D_conv1_1_D_0_split_0
I0702 03:29:23.436601 22531 net.cpp:434] loss <- labelNir_dataNir_1_split_0
I0702 03:29:23.436609 22531 net.cpp:408] loss -> loss
I0702 03:29:23.436625 22531 layer_factory.hpp:77] Creating layer loss
I0702 03:29:23.441231 22531 net.cpp:150] Setting up loss
I0702 03:29:23.441254 22531 net.cpp:157] Top shape: (1)
I0702 03:29:23.441258 22531 net.cpp:160]     with loss weight 1
I0702 03:29:23.441277 22531 net.cpp:165] Memory required for data: 6461337604
I0702 03:29:23.441283 22531 layer_factory.hpp:77] Creating layer accuracy
I0702 03:29:23.441293 22531 net.cpp:100] Creating Layer accuracy
I0702 03:29:23.441299 22531 net.cpp:434] accuracy <- conv1_1_D_conv1_1_D_0_split_1
I0702 03:29:23.441305 22531 net.cpp:434] accuracy <- labelNir_dataNir_1_split_1
I0702 03:29:23.441311 22531 net.cpp:408] accuracy -> accuracy
I0702 03:29:23.441318 22531 net.cpp:408] accuracy -> per_class_accuracy
I0702 03:29:23.441365 22531 net.cpp:150] Setting up accuracy
I0702 03:29:23.441368 22531 net.cpp:157] Top shape: (1)
I0702 03:29:23.441371 22531 net.cpp:157] Top shape: 3 (3)
I0702 03:29:23.441373 22531 net.cpp:165] Memory required for data: 6461337620
I0702 03:29:23.441376 22531 net.cpp:228] accuracy does not need backward computation.
I0702 03:29:23.441380 22531 net.cpp:226] loss needs backward computation.
I0702 03:29:23.441382 22531 net.cpp:226] conv1_1_D_conv1_1_D_0_split needs backward computation.
I0702 03:29:23.441385 22531 net.cpp:226] conv1_1_D needs backward computation.
…
    new_height: 360
    new_width: 480
  }
}
layer {
  name: "dataNDVI"
  type: "DenseImageOnlyData"
  top: "dataNDVI"
  dense_image_data_param {
    source: "/home/enddl22/workspace/SegNet-Tutorial/SequoiaMulti/trainNDVI.txt"
    batch_size: 6
    shuffle: false
    new_height: 360
    new_width: 480
  }
}
layer {
  name: "dataRed"
  type: "DenseImageOnlyData"
  top: "dataRed"
  dense_image_data_param {
    source: "/home/enddl22/workspace/SegNet-Tutorial/SequoiaMulti/trainRed.txt"
    batch_size: 6
    shuffle: false
    new_height: 360
    new_width: 480
  }
}
layer {
  name: "data"
  type: "Concat"
  bottom: "dataNir"
  bottom: "dataNDVI"
  bottom: "dataRed"
  top: "data"
  concat_param {
    axis: 1
  }
}
layer {
  name: "multiconv1_1"
  type: "Convolution"
  bottom: "data"
  top: "conv1_1"
  param {
    lr_mult: 1
    decay_mult: 1
  }
  param {
    lr_mult: 2
    decay_mult: 0
  }
  convolution_param {
    num_output: 64
    pad: 1
    kernel_size: 3
    weight_filler {
      type: "msra"
    }
    bias_filler {
      type: "constant"
    }
  }
}
layer {
  name: "conv1_1_bn"
  type: "BN"
  bottom: "conv1_1"
  top: "conv1_1"
  param {
    lr_mult: 1
    decay_mult: 1
  }
  param {
    lr_mult: 1
    decay_mult: 0
  }
  bn_param {
    scale_filler {
      type: "constant"
      value: 1
    }
    shift_filler {
      type: "constant"
      value: 0.001
    }
  }
}
layer {
  name: "relu1_1"
  type: "ReLU"
  bottom: "conv1_1"
  top: "conv1_1"
}
layer {
  name: "conv1_2"
  type: "Convolution"
  bottom: "conv1_1"
  top: "conv1_2"
  param {
    lr_mult: 1
    decay_mult: 1
  }
  param {
    lr_mult: 2
    decay_mult: 0
  }
  convolution_param {
    num_output: 64
    pad: 1
    kernel_size: 3
    weight_filler {
      type: "msra"
    }
    bias_filler {
      type: "constant"
    }
  }
}
layer {
  name: "conv1_2_bn"
  type: "BN"
  bottom: "conv1_2"
  top: "conv1_2"
  param {
    lr_mult: 1
    decay_mult: 1
  }
  param {
    lr_mult: 1
    decay_mult: 0
  }
  bn_param {
    scale_filler {
      type: "constant"
      value: 1
    }
    shift_filler {
      type: "constant"
      value: 0.001
    }
  }
}
layer {
  name: "relu1_2"
  type: "ReLU"
  bottom: "conv1_2"
  top: "conv1_2"
}
layer {
  name: "pool1"
  type: "Pooling"
  bottom: "conv1_2"
  top: "pool1"
  top: "pool1_mask"
  pooling_param {
    pool: MAX
    kernel_size: 2
    stride: 2
  }
}
layer {
  name: "conv2_1"
  type: "Convolution"
  bottom: "pool1"
  top: "conv2_1"
  param {
    lr_mult: 1
    decay_mult: 1
  }
  param {
    lr_mult: 2
    decay_mult: 0
  }
  convolution_param {
    num_output: 128
    pad: 1
    kernel_size: 3
    weight_filler {
      type: "msra"
    }
    bias_filler {
      type: "constant"
    }
  }
}
layer {
  name: "conv2_1_bn"
  type: "BN"
  bottom: "conv2_1"
  top: "conv2_1"
  param {
    lr_mult: 1
    decay_mult: 1
  }
  param {
    lr_mult: 1
    decay_mult: 0
  }
  bn_param {
    scale_filler {
      type: "constant"
      value: 1
    }
    shift_filler {
      type: "constant"
      value: 0.001
    }
  }
}
layer {
  name: "relu2_1"
  type: "ReLU"
  bottom: "conv2_1"
  top: "conv2_1"
}
layer {
  name: "conv2_2"
  type: "Convolution"
  bottom: "conv2_1"
  top: "conv2_2"
  param {
    lr_mult: 1
    decay_mult: 1
  }
  param {
    lr_mult: 2
    decay_mult: 0
  }
  convolution_param {
    num_output: 128
    pad: 1
    kernel_size: 3
    weight_filler {
      type: "msra"
    }
    bias_filler {
      type: "constant"
    }
  }
}
layer {
  name: "conv2_2_bn"
  type: "BN"
  bottom: "conv2_2"
  top: "conv2_2"
  param {
    lr_mult: 1
    decay_mult: 1
  }
  param {
    lr_mult: 1
    decay_mult: 0
  }
  bn_param {
    scale_filler {
      type: "constant"
      value: 1
    }
    shift_filler {
      type: "constant"
      value: 0.001
    }
  }
}
layer {
  name: "relu2_2"
  type: "ReLU"
  bottom: "conv2_2"
  top: "conv2_2"
}
layer {
  name: "pool2"
  type: "Pooling"
  bottom: "conv2_2"
  top: "pool2"
  top: "pool2_mask"
  pooling_param {
    pool: MAX
    kernel_size: 2
    stride: 2
  }
}
layer {
  name: "conv3_1"
  type: "Convolution"
  bottom: "pool2"
  top: "conv3_1"
  param {
    lr_mult: 1
    decay_mult: 1
  }
  param {
    lr_mult: 2
    decay_mult: 0
  }
  convolution_param {
    num_output: 256
    pad: 1
    kernel_size: 3
    weight_filler {
      type: "msra"
    }
    bias_filler {
      type: "constant"
    }
  }
}
layer {
  name: "conv3_1_bn"
  type: "BN"
  bottom: "conv3_1"
  top: "conv3_1"
  param {
    lr_mult: 1
    decay_mult: 1
  }
  param {
    lr_mult: 1
    decay_mult: 0
  }
  bn_param {
    scale_filler {
      type: "constant"
      value: 1
    }
    shift_filler {
      type: "constant"
      value: 0.001
    }
  }
}
layer {
  name: "relu3_1"
  type: "ReLU"
  bottom: "conv3_1"
  top: "conv3_1"
}
layer {
  name: "conv3_2"
  type: "Convolution"
  bottom: "conv3_1"
  top: "conv3_2"
  param {
    lr_mult: 1
    decay_mult: 1
  }
  param {
    lr_mult: 2
    decay_mult: 0
  }
  convolution_param {
    num_output: 256
    pad: 1
    kernel_size: 3
    weight_filler {
      type: "msra"
    }
    bias_filler {
      type: "constant"
    }
  }
}
layer {
  name: "conv3_2_bn"
  type: "BN"
  bottom: "conv3_2"
  top: "conv3_2"
  param {
    lr_mult: 1
    decay_mult: 1
  }
  param {
    lr_mult: 1
    decay_mult: 0
  }
  bn_param {
    scale_filler {
      type: "constant"
      value: 1
    }
    shift_filler {
      type: "constant"
      value: 0.001
    }
  }
}
layer {
  name: "relu3_2"
  type: "ReLU"
  bottom: "conv3_2"
  top: "conv3_2"
}
layer {
  name: "conv3_3"
  type: "Convolution"
  bottom: "conv3_2"
  top: "conv3_3"
  param {
    lr_mult: 1
    decay_mult: 1
  }
  param {
    lr_mult: 2
    decay_mult: 0
  }
  convolution_param {
    num_output: 256
    pad: 1
    kernel_size: 3
    weight_filler {
      type: "msra"
    }
    bias_filler {
      type: "constant"
    }
  }
}
layer {
  name: "conv3_3_bn"
  type: "BN"
  bottom: "conv3_3"
  top: "conv3_3"
  param {
    lr_mult: 1
    decay_mult: 1
  }
  param {
    lr_mult: 1
    decay_mult: 0
  }
  bn_param {
    scale_filler {
      type: "constant"
      value: 1
    }
    shift_filler {
      type: "constant"
      value: 0.001
    }
  }
}
layer {
  name: "relu3_3"
  type: "ReLU"
  bottom: "conv3_3"
  top: "conv3_3"
}
layer {
  name: "pool3"
  type: "Pooling"
  bottom: "conv3_3"
  top: "pool3"
  top: "pool3_mask"
  pooling_param {
    pool: MAX
    kernel_size: 2
    stride: 2
  }
}
layer {
  name: "conv4_1"
  type: "Convolution"
  bottom: "pool3"
  top: "conv4_1"
  param {
    lr_mult: 1
    decay_mult: 1
  }
  param {
    lr_mult: 2
    decay_mult: 0
  }
  convolution_param {
    num_output: 512
    pad: 1
    kernel_size: 3
    weight_filler {
      type: "msra"
    }
    bias_filler {
      type: "constant"
    }
  }
}
layer {
  name: "conv4_1_bn"
  type: "BN"
  bottom: "conv4_1"
  top: "conv4_1"
  param {
    lr_mult: 1
    decay_mult: 1
  }
  param {
    lr_mult: 1
    decay_mult: 0
  }
  bn_param {
    scale_filler {
      type: "constant"
      value: 1
    }
    shift_filler {
      type: "constant"
      value: 0.001
    }
  }
}
layer {
  name: "relu4_1"
  type: "ReLU"
  bottom: "conv4_1"
  top: "conv4_1"
}
layer {
  name: "conv4_2"
  type: "Convolution"
  bottom: "conv4_1"
  top: "conv4_2"
  param {
    lr_mult: 1
    decay_mult: 1
  }
  param {
    lr_mult: 2
    decay_mult: 0
  }
  convolution_param {
    num_output: 512
    pad: 1
    kernel_size: 3
    weight_filler {
      type: "msra"
    }
    bias_filler {
      type: "constant"
    }
  }
}
layer {
  name: "conv4_2_bn"
  type: "BN"
  bottom: "conv4_2"
  top: "conv4_2"
  param {
    lr_mult: 1
    decay_mult: 1
  }
  param {
    lr_mult: 1
    decay_mult: 0
  }
  bn_param {
    scale_filler {
      type: "constant"
      value: 1
    }
    shift_filler {
      type: "constant"
      value: 0.001
    }
  }
}
layer {
  name: "relu4_2"
  type: "ReLU"
  bottom: "conv4_2"
  top: "conv4_2"
}
layer {
  name: "conv4_3"
  type: "Convolution"
  bottom: "conv4_2"
  top: "conv4_3"
  param {
    lr_mult: 1
    decay_mult: 1
  }
  param {
    lr_mult: 2
    decay_mult: 0
  }
  convolution_param {
    num_output: 512
    pad: 1
    kernel_size: 3
    weight_filler {
      type: "msra"
    }
    bias_filler {
      type: "constant"
    }
  }
}
layer {
  name: "conv4_3_bn"
  type: "BN"
  bottom: "conv4_3"
  top: "conv4_3"
  param {
    lr_mult: 1
    decay_mult: 1
  }
  param {
    lr_mult: 1
    decay_mult: 0
  }
  bn_param {
    scale_filler {
      type: "constant"
      value: 1
    }
    shift_filler {
      type: "constant"
      value: 0.001
    }
  }
}
layer {
  name: "relu4_3"
  type: "ReLU"
  bottom: "conv4_3"
  top: "conv4_3"
}
layer {
  name: "pool4"
  type: "Pooling"
  bottom: "conv4_3"
  top: "pool4"
  top: "pool4_mask"
  pooling_param {
    pool: MAX
    kernel_size: 2
    stride: 2
  }
}
layer {
  name: "conv5_1"
  type: "Convolution"
  bottom: "pool4"
  top: "conv5_1"
  param {
    lr_mult: 1
    decay_mult: 1
  }
  param {
    lr_mult: 2
    decay_mult: 0
  }
  convolution_param {
    num_output: 512
    pad: 1
    kernel_size: 3
    weight_filler {
      type: "msra"
    }
    bias_filler {
      type: "constant"
    }
  }
}
layer {
  name: "conv5_1_bn"
  type: "BN"
  bottom: "conv5_1"
  top: "conv5_1"
  param {
    lr_mult: 1
    decay_mult: 1
  }
  param {
    lr_mult: 1
    decay_mult: 0
  }
  bn_param {
    scale_filler {
      type: "constant"
      value: 1
    }
    shift_filler {
      type: "constant"
      value: 0.001
    }
  }
}
layer {
  name: "relu5_1"
  type: "ReLU"
  bottom: "conv5_1"
  top: "conv5_1"
}
layer {
  name: "conv5_2"
  type: "Convolution"
  bottom: "conv5_1"
  top: "conv5_2"
  param {
    lr_mult: 1
    decay_mult: 1
  }
  param {
    lr_mult: 2
    decay_mult: 0
  }
  convolution_param {
    num_output: 512
    pad: 1
    kernel_size: 3
    weight_filler {
      type: "msra"
    }
    bias_filler {
      type: "constant"
    }
  }
}
layer {
  name: "conv5_2_bn"
  type: "BN"
  bottom: "conv5_2"
  top: "conv5_2"
  param {
    lr_mult: 1
    decay_mult: 1
  }
  param {
    lr_mult: 1
    decay_mult: 0
  }
  bn_param {
    scale_filler {
      type: "constant"
      value: 1
    }
    shift_filler {
      type: "constant"
      value: 0.001
    }
  }
}
layer {
  name: "relu5_2"
  type: "ReLU"
  bottom: "conv5_2"
  top: "conv5_2"
}
layer {
  name: "conv5_3"
  type: "Convolution"
  bottom: "conv5_2"
  top: "conv5_3"
  param {
    lr_mult: 1
    decay_mult: 1
  }
  param {
    lr_mult: 2
    decay_mult: 0
  }
  convolution_param {
    num_output: 512
    pad: 1
    kernel_size: 3
    weight_filler {
      type: "msra"
    }
    bias_filler {
      type: "constant"
    }
  }
}
layer {
  name: "conv5_3_bn"
  type: "BN"
  bottom: "conv5_3"
  top: "conv5_3"
  param {
    lr_mult: 1
    decay_mult: 1
  }
  param {
    lr_mult: 1
    decay_mult: 0
  }
  bn_param {
    scale_filler {
      type: "constant"
      value: 1
    }
    shift_filler {
      type: "constant"
      value: 0.001
    }
  }
}
layer {
  name: "relu5_3"
  type: "ReLU"
  bottom: "conv5_3"
  top: "conv5_3"
}
layer {
  name: "pool5"
  type: "Pooling"
  bottom: "conv5_3"
  top: "pool5"
  top: "pool5_mask"
  pooling_param {
    pool: MAX
    kernel_size: 2
    stride: 2
  }
}
layer {
  name: "upsample5"
  type: "Upsample"
  bottom: "pool5"
  bottom: "pool5_mask"
  top: "pool5_D"
  upsample_param {
    scale: 2
    upsample_h: 23
    upsample_w: 30
  }
}
layer {
  name: "conv5_3_D"
  type: "Convolution"
  bottom: "pool5_D"
  top: "conv5_3_D"
  param {
    lr_mult: 1
    decay_mult: 1
  }
  param {
    lr_mult: 2
    decay_mult: 0
  }
  convolution_param {
    num_output: 512
    pad: 1
    kernel_size: 3
    weight_filler {
      type: "msra"
    }
    bias_filler {
      type: "constant"
    }
  }
}
layer {
  name: "conv5_3_D_bn"
  type: "BN"
  bottom: "conv5_3_D"
  top: "conv5_3_D"
  param {
    lr_mult: 1
    decay_mult: 1
  }
  param {
    lr_mult: 1
    decay_mult: 0
  }
  bn_param {
    scale_filler {
      type: "constant"
      value: 1
    }
    shift_filler {
      type: "constant"
      value: 0.001
    }
  }
}
layer {
  name: "relu5_3_D"
  type: "ReLU"
  bottom: "conv5_3_D"
  top: "conv5_3_D"
}
layer {
  name: "conv5_2_D"
  type: "Convolution"
  bottom: "conv5_3_D"
  top: "conv5_2_D"
  param {
    lr_mult: 1
    decay_mult: 1
  }
  param {
    lr_mult: 2
    decay_mult: 0
  }
  convolution_param {
    num_output: 512
    pad: 1
    kernel_size: 3
    weight_filler {
      type: "msra"
    }
    bias_filler {
      type: "constant"
    }
  }
}
layer {
  name: "conv5_2_D_bn"
  type: "BN"
  bottom: "conv5_2_D"
  top: "conv5_2_D"
  param {
    lr_mult: 1
    decay_mult: 1
  }
  param {
    lr_mult: 1
    decay_mult: 0
  }
  bn_param {
    scale_filler {
      type: "constant"
      value: 1
    }
    shift_filler {
      type: "constant"
      value: 0.001
    }
  }
}
layer {
  name: "relu5_2_D"
  type: "ReLU"
  bottom: "conv5_2_D"
  top: "conv5_2_D"
}
layer {
  name: "conv5_1_D"
  type: "Convolution"
  bottom: "conv5_2_D"
  top: "conv5_1_D"
  param {
    lr_mult: 1
    decay_mult: 1
  }
  param {
    lr_mult: 2
    decay_mult: 0
  }
  convolution_param {
    num_output: 512
    pad: 1
    kernel_size: 3
    weight_filler {
      type: "msra"
    }
    bias_filler {
      type: "constant"
    }
  }
}
layer {
  name: "conv5_1_D_bn"
  type: "BN"
  bottom: "conv5_1_D"
  top: "conv5_1_D"
  param {
    lr_mult: 1
    decay_mult: 1
  }
  param {
    lr_mult: 1
    decay_mult: 0
  }
  bn_param {
    scale_filler {
      type: "constant"
      value: 1
    }
    shift_filler {
      type: "constant"
      value: 0.001
    }
  }
}
layer {
  name: "relu5_1_D"
  type: "ReLU"
  bottom: "conv5_1_D"
  top: "conv5_1_D"
}
layer {
  name: "upsample4"
  type: "Upsample"
  bottom: "conv5_1_D"
  bottom: "pool4_mask"
  top: "pool4_D"
  upsample_param {
    scale: 2
    upsample_h: 45
    upsample_w: 60
  }
}
layer {
  name: "conv4_3_D"
  type: "Convolution"
  bottom: "pool4_D"
  top: "conv4_3_D"
  param {
    lr_mult: 1
    decay_mult: 1
  }
  param {
    lr_mult: 2
    decay_mult: 0
  }
  convolution_param {
    num_output: 512
    pad: 1
    kernel_size: 3
    weight_filler {
      type: "msra"
    }
    bias_filler {
      type: "constant"
    }
  }
}
layer {
  name: "conv4_3_D_bn"
  type: "BN"
  bottom: "conv4_3_D"
  top: "conv4_3_D"
  param {
    lr_mult: 1
    decay_mult: 1
  }
  param {
    lr_mult: 1
    decay_mult: 0
  }
  bn_param {
    scale_filler {
      type: "constant"
      value: 1
    }
    shift_filler {
      type: "constant"
      value: 0.001
    }
  }
}
layer {
  name: "relu4_3_D"
  type: "ReLU"
  bottom: "conv4_3_D"
  top: "conv4_3_D"
}
layer {
  name: "conv4_2_D"
  type: "Convolution"
  bottom: "conv4_3_D"
  top: "conv4_2_D"
  param {
    lr_mult: 1
    decay_mult: 1
  }
  param {
    lr_mult: 2
    decay_mult: 0
  }
  convolution_param {
    num_output: 512
    pad: 1
    kernel_size: 3
    weight_filler {
      type: "msra"
    }
    bias_filler {
      type: "constant"
    }
  }
}
layer {
  name: "conv4_2_D_bn"
  type: "BN"
  bottom: "conv4_2_D"
  top: "conv4_2_D"
  param {
    lr_mult: 1
    decay_mult: 1
  }
  param {
    lr_mult: 1
    decay_mult: 0
  }
  bn_param {
    scale_filler {
      type: "constant"
      value: 1
    }
    shift_filler {
      type: "constant"
      value: 0.001
    }
  }
}
layer {
  name: "relu4_2_D"
  type: "ReLU"
  bottom: "conv4_2_D"
  top: "conv4_2_D"
}
layer {
  name: "conv4_1_D"
  type: "Convolution"
  bottom: "conv4_2_D"
  top: "conv4_1_D"
  param {
    lr_mult: 1
    decay_mult: 1
  }
  param {
    lr_mult: 2
    decay_mult: 0
  }
  convolution_param {
    num_output: 256
    pad: 1
    kernel_size: 3
    weight_filler {
      type: "msra"
    }
    bias_filler {
      type: "constant"
    }
  }
}
layer {
  name: "conv4_1_D_bn"
  type: "BN"
  bottom: "conv4_1_D"
  top: "conv4_1_D"
  param {
    lr_mult: 1
    decay_mult: 1
  }
  param {
    lr_mult: 1
    decay_mult: 0
  }
  bn_param {
    scale_filler {
      type: "constant"
      value: 1
    }
    shift_filler {
      type: "constant"
      value: 0.001
    }
  }
}
layer {
  name: "relu4_1_D"
  type: "ReLU"
  bottom: "conv4_1_D"
  top: "conv4_1_D"
}
layer {
  name: "upsample3"
  type: "Upsample"
  bottom: "conv4_1_D"
  bottom: "pool3_mask"
  top: "pool3_D"
  upsample_param {
    scale: 2
  }
}
layer {
  name: "conv3_3_D"
  type: "Convolution"
  bottom: "pool3_D"
  top: "conv3_3_D"
  param {
    lr_mult: 1
    decay_mult: 1
  }
  param {
    lr_mult: 2
    decay_mult: 0
  }
  convolution_param {
    num_output: 256
    pad: 1
    kernel_size: 3
    weight_filler {
      type: "msra"
    }
    bias_filler {
      type: "constant"
    }
  }
}
layer {
  name: "conv3_3_D_bn"
  type: "BN"
  bottom: "conv3_3_D"
  top: "conv3_3_D"
  param {
    lr_mult: 1
    decay_mult: 1
  }
  param {
    lr_mult: 1
    decay_mult: 0
  }
  bn_param {
    scale_filler {
      type: "constant"
      value: 1
    }
    shift_filler {
      type: "constant"
      value: 0.001
    }
  }
}
layer {
  name: "relu3_3_D"
  type: "ReLU"
  bottom: "conv3_3_D"
  top: "conv3_3_D"
}
layer {
  name: "conv3_2_D"
  type: "Convolution"
  bottom: "conv3_3_D"
  top: "conv3_2_D"
  param {
    lr_mult: 1
    decay_mult: 1
  }
  param {
    lr_mult: 2
    decay_mult: 0
  }
  convolution_param {
    num_output: 256
    pad: 1
    kernel_size: 3
    weight_filler {
      type: "msra"
    }
    bias_filler {
      type: "constant"
    }
  }
}
layer {
  name: "conv3_2_D_bn"
  type: "BN"
  bottom: "conv3_2_D"
  top: "conv3_2_D"
  param {
    lr_mult: 1
    decay_mult: 1
  }
  param {
    lr_mult: 1
    decay_mult: 0
  }
  bn_param {
    scale_filler {
      type: "constant"
      value: 1
    }
    shift_filler {
      type: "constant"
      value: 0.001
    }
  }
}
layer {
  name: "relu3_2_D"
  type: "ReLU"
  bottom: "conv3_2_D"
  top: "conv3_2_D"
}
layer {
  name: "conv3_1_D"
  type: "Convolution"
  bottom: "conv3_2_D"
  top: "conv3_1_D"
  param {
    lr_mult: 1
    decay_mult: 1
  }
  param {
    lr_mult: 2
    decay_mult: 0
  }
  convolution_param {
    num_output: 128
    pad: 1
    kernel_size: 3
    weight_filler {
      type: "msra"
    }
    bias_filler {
      type: "constant"
    }
  }
}
layer {
  name: "conv3_1_D_bn"
  type: "BN"
  bottom: "conv3_1_D"
  top: "conv3_1_D"
  param {
    lr_mult: 1
    decay_mult: 1
  }
  param {
    lr_mult: 1
    decay_mult: 0
  }
  bn_param {
    scale_filler {
      type: "constant"
      value: 1
    }
    shift_filler {
      type: "constant"
      value: 0.001
    }
  }
}
layer {
  name: "relu3_1_D"
  type: "ReLU"
  bottom: "conv3_1_D"
  top: "conv3_1_D"
}
layer {
  name: "upsample2"
  type: "Upsample"
  bottom: "conv3_1_D"
  bottom: "pool2_mask"
  top: "pool2_D"
  upsample_param {
    scale: 2
  }
}
layer {
  name: "conv2_2_D"
  type: "Convolution"
  bottom: "pool2_D"
  top: "conv2_2_D"
  param {
    lr_mult: 1
    decay_mult: 1
  }
  param {
    lr_mult: 2
    decay_mult: 0
  }
  convolution_param {
    num_output: 128
    pad: 1
    kernel_size: 3
    weight_filler {
      type: "msra"
    }
    bias_filler {
      type: "constant"
    }
  }
}
layer {
  name: "conv2_2_D_bn"
  type: "BN"
  bottom: "conv2_2_D"
  top: "conv2_2_D"
  param {
    lr_mult: 1
    decay_mult: 1
  }
  param {
    lr_mult: 1
    decay_mult: 0
  }
  bn_param {
    scale_filler {
      type: "constant"
      value: 1
    }
    shift_filler {
      type: "constant"
      value: 0.001
    }
  }
}
layer {
  name: "relu2_2_D"
  type: "ReLU"
  bottom: "conv2_2_D"
  top: "conv2_2_D"
}
layer {
  name: "conv2_1_D"
  type: "Convolution"
  bottom: "conv2_2_D"
  top: "conv2_1_D"
  param {
    lr_mult: 1
    decay_mult: 1
  }
  param {
    lr_mult: 2
    decay_mult: 0
  }
  convolution_param {
    num_output: 64
    pad: 1
    kernel_size: 3
    weight_filler {
      type: "msra"
    }
    bias_filler {
      type: "constant"
    }
  }
}
layer {
  name: "conv2_1_D_bn"
  type: "BN"
  bottom: "conv2_1_D"
  top: "conv2_1_D"
  param {
    lr_mult: 1
    decay_mult: 1
  }
  param {
    lr_mult: 1
    decay_mult: 0
  }
  bn_param {
    scale_filler {
      type: "constant"
      value: 1
    }
    shift_filler {
      type: "constant"
      value: 0.001
    }
  }
}
layer {
  name: "relu2_1_D"
  type: "ReLU"
  bottom: "conv2_1_D"
  top: "conv2_1_D"
}
layer {
  name: "upsample1"
  type: "Upsample"
  bottom: "conv2_1_D"
  bottom: "pool1_mask"
  top: "pool1_D"
  upsample_param {
    scale: 2
  }
}
layer {
  name: "conv1_2_D"
  type: "Convolution"
  bottom: "pool1_D"
  top: "conv1_2_D"
  param {
    lr_mult: 1
    decay_mult: 1
  }
  param {
    lr_mult: 2
    decay_mult: 0
  }
  convolution_param {
    num_output: 64
    pad: 1
    kernel_size: 3
    weight_filler {
      type: "msra"
    }
    bias_filler {
      type: "constant"
    }
  }
}
layer {
  name: "conv1_2_D_bn"
  type: "BN"
  bottom: "conv1_2_D"
  top: "conv1_2_D"
  param {
    lr_mult: 1
    decay_mult: 1
  }
  param {
    lr_mult: 1
    decay_mult: 0
  }
  bn_param {
    scale_filler {
      type: "constant"
      value: 1
    }
    shift_filler {
      type: "constant"
      value: 0.001
    }
  }
}
layer {
  name: "relu1_2_D"
  type: "ReLU"
  bottom: "conv1_2_D"
  top: "conv1_2_D"
}
layer {
  name: "conv1_1_D"
  type: "Convolution"
  bottom: "conv1_2_D"
  top: "conv1_1_D"
  param {
    lr_mult: 1
    decay_mult: 1
  }
  param {
    lr_mult: 2
    decay_mult: 0
  }
  convolution_param {
    num_output: 3
    pad: 1
    kernel_size: 3
    weight_filler {
      type: "msra"
    }
    bias_filler {
      type: "constant"
    }
  }
}
layer {
  name: "loss"
  type: "SoftmaxWithLoss"
  bottom: "conv1_1_D"
  bottom: "labelNir"
  top: "loss"
  loss_param {
    weight_by_label_freqs: false
    class_weighting: 9.6446
    class_weighting: 7.3614
    class_weighting: 5.8418
  }
  softmax_param {
    engine: CAFFE
  }
}
layer {
  name: "accuracy"
  type: "Accuracy"
  bottom: "conv1_1_D"
  bottom: "labelNir"
  top: "accuracy"
  top: "per_class_accuracy"
}
I0702 03:29:23.444721 22531 layer_factory.hpp:77] Creating layer dataNir
I0702 03:29:23.444733 22531 net.cpp:100] Creating Layer dataNir
I0702 03:29:23.444738 22531 net.cpp:408] dataNir -> dataNir
I0702 03:29:23.444746 22531 net.cpp:408] dataNir -> labelNir
I0702 03:29:23.444753 22531 dense_image_data_layer.cpp:49] Opening file /home/enddl22/workspace/SegNet-Tutorial/SequoiaMulti/trainNir.txt
I0702 03:29:23.444846 22531 dense_image_data_layer.cpp:64] A total of 125 examples.
I0702 03:29:23.473273 22531 dense_image_data_layer.cpp:117] output data size: 6,3,360,480
I0702 03:29:23.478240 22531 net.cpp:150] Setting up dataNir
I0702 03:29:23.478262 22531 net.cpp:157] Top shape: 6 3 360 480 (3110400)
I0702 03:29:23.478268 22531 net.cpp:157] Top shape: 6 1 360 480 (1036800)
I0702 03:29:23.478272 22531 net.cpp:165] Memory required for data: 16588800
I0702 03:29:23.478278 22531 layer_factory.hpp:77] Creating layer labelNir_dataNir_1_split
I0702 03:29:23.478289 22531 net.cpp:100] Creating Layer labelNir_dataNir_1_split
I0702 03:29:23.478293 22531 net.cpp:434] labelNir_dataNir_1_split <- labelNir
I0702 03:29:23.478298 22531 net.cpp:408] labelNir_dataNir_1_split -> labelNir_dataNir_1_split_0
I0702 03:29:23.478307 22531 net.cpp:408] labelNir_dataNir_1_split -> labelNir_dataNir_1_split_1
I0702 03:29:23.478397 22531 net.cpp:150] Setting up labelNir_dataNir_1_split
I0702 03:29:23.478406 22531 net.cpp:157] Top shape: 6 1 360 480 (1036800)
I0702 03:29:23.478412 22531 net.cpp:157] Top shape: 6 1 360 480 (1036800)
I0702 03:29:23.478417 22531 net.cpp:165] Memory required for data: 24883200
I0702 03:29:23.478421 22531 layer_factory.hpp:77] Creating layer dataNDVI
I0702 03:29:23.478430 22531 net.cpp:100] Creating Layer dataNDVI
I0702 03:29:23.478436 22531 net.cpp:408] dataNDVI -> dataNDVI
I0702 03:29:23.478446 22531 dense_image_only_data_layer.cpp:49] Opening file /home/enddl22/workspace/SegNet-Tutorial/SequoiaMulti/trainNDVI.txt
I0702 03:29:23.478509 22531 dense_image_only_data_layer.cpp:65] A total of 125 examples.
I0702 03:29:23.498278 22531 dense_image_only_data_layer.cpp:118] output data size: 6,3,360,480
I0702 03:29:23.502117 22531 net.cpp:150] Setting up dataNDVI
I0702 03:29:23.502141 22531 net.cpp:157] Top shape: 6 3 360 480 (3110400)
I0702 03:29:23.502146 22531 net.cpp:165] Memory required for data: 37324800
I0702 03:29:23.502152 22531 layer_factory.hpp:77] Creating layer dataRed
I0702 03:29:23.502163 22531 net.cpp:100] Creating Layer dataRed
I0702 03:29:23.502169 22531 net.cpp:408] dataRed -> dataRed
I0702 03:29:23.502182 22531 dense_image_only_data_layer.cpp:49] Opening file /home/enddl22/workspace/SegNet-Tutorial/SequoiaMulti/trainRed.txt
I0702 03:29:23.502226 22531 dense_image_only_data_layer.cpp:65] A total of 125 examples.
I0702 03:29:23.523231 22531 dense_image_only_data_layer.cpp:118] output data size: 6,3,360,480
I0702 03:29:23.527345 22531 net.cpp:150] Setting up dataRed
I0702 03:29:23.527369 22531 net.cpp:157] Top shape: 6 3 360 480 (3110400)
I0702 03:29:23.527374 22531 net.cpp:165] Memory required for data: 49766400
I0702 03:29:23.527403 22531 layer_factory.hpp:77] Creating layer data
I0702 03:29:23.527418 22531 net.cpp:100] Creating Layer data
I0702 03:29:23.527426 22531 net.cpp:434] data <- dataNir
I0702 03:29:23.527431 22531 net.cpp:434] data <- dataNDVI
I0702 03:29:23.527436 22531 net.cpp:434] data <- dataRed
I0702 03:29:23.527441 22531 net.cpp:408] data -> data
I0702 03:29:23.527509 22531 net.cpp:150] Setting up data
I0702 03:29:23.527518 22531 net.cpp:157] Top shape: 6 9 360 480 (9331200)
I0702 03:29:23.527521 22531 net.cpp:165] Memory required for data: 87091200
I0702 03:29:23.527525 22531 layer_factory.hpp:77] Creating layer multiconv1_1
I0702 03:29:23.527536 22531 net.cpp:100] Creating Layer multiconv1_1
I0702 03:29:23.527540 22531 net.cpp:434] multiconv1_1 <- data
I0702 03:29:23.527547 22531 net.cpp:408] multiconv1_1 -> conv1_1
I0702 03:29:23.530040 22531 net.cpp:150] Setting up multiconv1_1
I0702 03:29:23.530055 22531 net.cpp:157] Top shape: 6 64 360 480 (66355200)
I0702 03:29:23.530059 22531 net.cpp:165] Memory required for data: 352512000
I0702 03:29:23.530071 22531 layer_factory.hpp:77] Creating layer conv1_1_bn
I0702 03:29:23.530081 22531 net.cpp:100] Creating Layer conv1_1_bn
I0702 03:29:23.530086 22531 net.cpp:434] conv1_1_bn <- conv1_1
I0702 03:29:23.530092 22531 net.cpp:395] conv1_1_bn -> conv1_1 (in-place)
I0702 03:29:23.531044 22531 net.cpp:150] Setting up conv1_1_bn
I0702 03:29:23.531054 22531 net.cpp:157] Top shape: 6 64 360 480 (66355200)
I0702 03:29:23.531057 22531 net.cpp:165] Memory required for data: 617932800
I0702 03:29:23.531064 22531 layer_factory.hpp:77] Creating layer relu1_1
I0702 03:29:23.531069 22531 net.cpp:100] Creating Layer relu1_1
I0702 03:29:23.531072 22531 net.cpp:434] relu1_1 <- conv1_1
I0702 03:29:23.531076 22531 net.cpp:395] relu1_1 -> conv1_1 (in-place)
I0702 03:29:23.531224 22531 net.cpp:150] Setting up relu1_1
I0702 03:29:23.531229 22531 net.cpp:157] Top shape: 6 64 360 480 (66355200)
I0702 03:29:23.531232 22531 net.cpp:165] Memory required for data: 883353600
I0702 03:29:23.531235 22531 layer_factory.hpp:77] Creating layer conv1_2
I0702 03:29:23.531244 22531 net.cpp:100] Creating Layer conv1_2
I0702 03:29:23.531247 22531 net.cpp:434] conv1_2 <- conv1_1
I0702 03:29:23.531253 22531 net.cpp:408] conv1_2 -> conv1_2
I0702 03:29:23.533537 22531 net.cpp:150] Setting up conv1_2
I0702 03:29:23.533548 22531 net.cpp:157] Top shape: 6 64 360 480 (66355200)
I0702 03:29:23.533551 22531 net.cpp:165] Memory required for data: 1148774400
I0702 03:29:23.533558 22531 layer_factory.hpp:77] Creating layer conv1_2_bn
I0702 03:29:23.533566 22531 net.cpp:100] Creating Layer conv1_2_bn
I0702 03:29:23.533571 22531 net.cpp:434] conv1_2_bn <- conv1_2
I0702 03:29:23.533576 22531 net.cpp:395] conv1_2_bn -> conv1_2 (in-place)
I0702 03:29:23.534531 22531 net.cpp:150] Setting up conv1_2_bn
I0702 03:29:23.534541 22531 net.cpp:157] Top shape: 6 64 360 480 (66355200)
I0702 03:29:23.534543 22531 net.cpp:165] Memory required for data: 1414195200
I0702 03:29:23.534548 22531 layer_factory.hpp:77] Creating layer relu1_2
I0702 03:29:23.534554 22531 net.cpp:100] Creating Layer relu1_2
I0702 03:29:23.534556 22531 net.cpp:434] relu1_2 <- conv1_2
I0702 03:29:23.534559 22531 net.cpp:395] relu1_2 -> conv1_2 (in-place)
I0702 03:29:23.535369 22531 net.cpp:150] Setting up relu1_2
I0702 03:29:23.535382 22531 net.cpp:157] Top shape: 6 64 360 480 (66355200)
I0702 03:29:23.535387 22531 net.cpp:165] Memory required for data: 1679616000
I0702 03:29:23.535390 22531 layer_factory.hpp:77] Creating layer pool1
I0702 03:29:23.535393 22531 layer_factory.cpp:91] cuDNN does not support multiple tops. Using Caffe's own pooling layer.
I0702 03:29:23.535399 22531 net.cpp:100] Creating Layer pool1
I0702 03:29:23.535401 22531 net.cpp:434] pool1 <- conv1_2
I0702 03:29:23.535404 22531 net.cpp:408] pool1 -> pool1
I0702 03:29:23.535410 22531 net.cpp:408] pool1 -> pool1_mask
I0702 03:29:23.535449 22531 net.cpp:150] Setting up pool1
I0702 03:29:23.535454 22531 net.cpp:157] Top shape: 6 64 180 240 (16588800)
I0702 03:29:23.535457 22531 net.cpp:157] Top shape: 6 64 180 240 (16588800)
I0702 03:29:23.535475 22531 net.cpp:165] Memory required for data: 1812326400
I0702 03:29:23.535477 22531 layer_factory.hpp:77] Creating layer conv2_1
I0702 03:29:23.535485 22531 net.cpp:100] Creating Layer conv2_1
I0702 03:29:23.535488 22531 net.cpp:434] conv2_1 <- pool1
I0702 03:29:23.535493 22531 net.cpp:408] conv2_1 -> conv2_1
I0702 03:29:23.538924 22531 net.cpp:150] Setting up conv2_1
I0702 03:29:23.538936 22531 net.cpp:157] Top shape: 6 128 180 240 (33177600)
I0702 03:29:23.538939 22531 net.cpp:165] Memory required for data: 1945036800
I0702 03:29:23.538949 22531 layer_factory.hpp:77] Creating layer conv2_1_bn
I0702 03:29:23.538956 22531 net.cpp:100] Creating Layer conv2_1_bn
I0702 03:29:23.538960 22531 net.cpp:434] conv2_1_bn <- conv2_1
I0702 03:29:23.538964 22531 net.cpp:395] conv2_1_bn -> conv2_1 (in-place)
I0702 03:29:23.539176 22531 net.cpp:150] Setting up conv2_1_bn
I0702 03:29:23.539181 22531 net.cpp:157] Top shape: 6 128 180 240 (33177600)
I0702 03:29:23.539185 22531 net.cpp:165] Memory required for data: 2077747200
I0702 03:29:23.539189 22531 layer_factory.hpp:77] Creating layer relu2_1
I0702 03:29:23.539194 22531 net.cpp:100] Creating Layer relu2_1
I0702 03:29:23.539197 22531 net.cpp:434] relu2_1 <- conv2_1
I0702 03:29:23.539201 22531 net.cpp:395] relu2_1 -> conv2_1 (in-place)
I0702 03:29:23.540040 22531 net.cpp:150] Setting up relu2_1
I0702 03:29:23.540050 22531 net.cpp:157] Top shape: 6 128 180 240 (33177600)
I0702 03:29:23.540052 22531 net.cpp:165] Memory required for data: 2210457600
I0702 03:29:23.540055 22531 layer_factory.hpp:77] Creating layer conv2_2
I0702 03:29:23.540063 22531 net.cpp:100] Creating Layer conv2_2
I0702 03:29:23.540067 22531 net.cpp:434] conv2_2 <- conv2_1
I0702 03:29:23.540071 22531 net.cpp:408] conv2_2 -> conv2_2
I0702 03:29:23.545518 22531 net.cpp:150] Setting up conv2_2
I0702 03:29:23.545534 22531 net.cpp:157] Top shape: 6 128 180 240 (33177600)
I0702 03:29:23.545538 22531 net.cpp:165] Memory required for data: 2343168000
I0702 03:29:23.545544 22531 layer_factory.hpp:77] Creating layer conv2_2_bn
I0702 03:29:23.545554 22531 net.cpp:100] Creating Layer conv2_2_bn
I0702 03:29:23.545558 22531 net.cpp:434] conv2_2_bn <- conv2_2
I0702 03:29:23.545563 22531 net.cpp:395] conv2_2_bn -> conv2_2 (in-place)
I0702 03:29:23.545783 22531 net.cpp:150] Setting up conv2_2_bn
I0702 03:29:23.545789 22531 net.cpp:157] Top shape: 6 128 180 240 (33177600)
I0702 03:29:23.545792 22531 net.cpp:165] Memory required for data: 2475878400
I0702 03:29:23.545796 22531 layer_factory.hpp:77] Creating layer relu2_2
I0702 03:29:23.545801 22531 net.cpp:100] Creating Layer relu2_2
I0702 03:29:23.545804 22531 net.cpp:434] relu2_2 <- conv2_2
I0702 03:29:23.545807 22531 net.cpp:395] relu2_2 -> conv2_2 (in-place)
I0702 03:29:23.545943 22531 net.cpp:150] Setting up relu2_2
I0702 03:29:23.545950 22531 net.cpp:157] Top shape: 6 128 180 240 (33177600)
I0702 03:29:23.545954 22531 net.cpp:165] Memory required for data: 2608588800
I0702 03:29:23.545958 22531 layer_factory.hpp:77] Creating layer pool2
I0702 03:29:23.545964 22531 layer_factory.cpp:91] cuDNN does not support multiple tops. Using Caffe's own pooling layer.
I0702 03:29:23.545969 22531 net.cpp:100] Creating Layer pool2
I0702 03:29:23.545972 22531 net.cpp:434] pool2 <- conv2_2
I0702 03:29:23.545976 22531 net.cpp:408] pool2 -> pool2
I0702 03:29:23.545981 22531 net.cpp:408] pool2 -> pool2_mask
I0702 03:29:23.546015 22531 net.cpp:150] Setting up pool2
I0702 03:29:23.546020 22531 net.cpp:157] Top shape: 6 128 90 120 (8294400)
I0702 03:29:23.546023 22531 net.cpp:157] Top shape: 6 128 90 120 (8294400)
I0702 03:29:23.546026 22531 net.cpp:165] Memory required for data: 2674944000
I0702 03:29:23.546030 22531 layer_factory.hpp:77] Creating layer conv3_1
I0702 03:29:23.546036 22531 net.cpp:100] Creating Layer conv3_1
I0702 03:29:23.546038 22531 net.cpp:434] conv3_1 <- pool2
I0702 03:29:23.546042 22531 net.cpp:408] conv3_1 -> conv3_1
I0702 03:29:23.556609 22531 net.cpp:150] Setting up conv3_1
I0702 03:29:23.556627 22531 net.cpp:157] Top shape: 6 256 90 120 (16588800)
I0702 03:29:23.556644 22531 net.cpp:165] Memory required for data: 2741299200
I0702 03:29:23.556655 22531 layer_factory.hpp:77] Creating layer conv3_1_bn
I0702 03:29:23.556664 22531 net.cpp:100] Creating Layer conv3_1_bn
I0702 03:29:23.556668 22531 net.cpp:434] conv3_1_bn <- conv3_1
I0702 03:29:23.556671 22531 net.cpp:395] conv3_1_bn -> conv3_1 (in-place)
I0702 03:29:23.556862 22531 net.cpp:150] Setting up conv3_1_bn
I0702 03:29:23.556866 22531 net.cpp:157] Top shape: 6 256 90 120 (16588800)
I0702 03:29:23.556869 22531 net.cpp:165] Memory required for data: 2807654400
I0702 03:29:23.556874 22531 layer_factory.hpp:77] Creating layer relu3_1
I0702 03:29:23.556879 22531 net.cpp:100] Creating Layer relu3_1
I0702 03:29:23.556882 22531 net.cpp:434] relu3_1 <- conv3_1
I0702 03:29:23.556885 22531 net.cpp:395] relu3_1 -> conv3_1 (in-place)
I0702 03:29:23.557014 22531 net.cpp:150] Setting up relu3_1
I0702 03:29:23.557019 22531 net.cpp:157] Top shape: 6 256 90 120 (16588800)
I0702 03:29:23.557023 22531 net.cpp:165] Memory required for data: 2874009600
I0702 03:29:23.557025 22531 layer_factory.hpp:77] Creating layer conv3_2
I0702 03:29:23.557031 22531 net.cpp:100] Creating Layer conv3_2
I0702 03:29:23.557034 22531 net.cpp:434] conv3_2 <- conv3_1
I0702 03:29:23.557039 22531 net.cpp:408] conv3_2 -> conv3_2
I0702 03:29:23.572266 22531 net.cpp:150] Setting up conv3_2
I0702 03:29:23.572288 22531 net.cpp:157] Top shape: 6 256 90 120 (16588800)
I0702 03:29:23.572293 22531 net.cpp:165] Memory required for data: 2940364800
I0702 03:29:23.572302 22531 layer_factory.hpp:77] Creating layer conv3_2_bn
I0702 03:29:23.572314 22531 net.cpp:100] Creating Layer conv3_2_bn
I0702 03:29:23.572319 22531 net.cpp:434] conv3_2_bn <- conv3_2
I0702 03:29:23.572325 22531 net.cpp:395] conv3_2_bn -> conv3_2 (in-place)
I0702 03:29:23.572598 22531 net.cpp:150] Setting up conv3_2_bn
I0702 03:29:23.572607 22531 net.cpp:157] Top shape: 6 256 90 120 (16588800)
I0702 03:29:23.572610 22531 net.cpp:165] Memory required for data: 3006720000
I0702 03:29:23.572618 22531 layer_factory.hpp:77] Creating layer relu3_2
I0702 03:29:23.572625 22531 net.cpp:100] Creating Layer relu3_2
I0702 03:29:23.572630 22531 net.cpp:434] relu3_2 <- conv3_2
I0702 03:29:23.572634 22531 net.cpp:395] relu3_2 -> conv3_2 (in-place)
I0702 03:29:23.572813 22531 net.cpp:150] Setting up relu3_2
I0702 03:29:23.572821 22531 net.cpp:157] Top shape: 6 256 90 120 (16588800)
I0702 03:29:23.572825 22531 net.cpp:165] Memory required for data: 3073075200
I0702 03:29:23.572829 22531 layer_factory.hpp:77] Creating layer conv3_3
I0702 03:29:23.572837 22531 net.cpp:100] Creating Layer conv3_3
I0702 03:29:23.572842 22531 net.cpp:434] conv3_3 <- conv3_2
I0702 03:29:23.572849 22531 net.cpp:408] conv3_3 -> conv3_3
I0702 03:29:23.590813 22531 net.cpp:150] Setting up conv3_3
I0702 03:29:23.590832 22531 net.cpp:157] Top shape: 6 256 90 120 (16588800)
I0702 03:29:23.590836 22531 net.cpp:165] Memory required for data: 3139430400
I0702 03:29:23.590842 22531 layer_factory.hpp:77] Creating layer conv3_3_bn
I0702 03:29:23.590852 22531 net.cpp:100] Creating Layer conv3_3_bn
I0702 03:29:23.590854 22531 net.cpp:434] conv3_3_bn <- conv3_3
I0702 03:29:23.590858 22531 net.cpp:395] conv3_3_bn -> conv3_3 (in-place)
I0702 03:29:23.591063 22531 net.cpp:150] Setting up conv3_3_bn
I0702 03:29:23.591069 22531 net.cpp:157] Top shape: 6 256 90 120 (16588800)
I0702 03:29:23.591073 22531 net.cpp:165] Memory required for data: 3205785600
I0702 03:29:23.591076 22531 layer_factory.hpp:77] Creating layer relu3_3
I0702 03:29:23.591083 22531 net.cpp:100] Creating Layer relu3_3
I0702 03:29:23.591085 22531 net.cpp:434] relu3_3 <- conv3_3
I0702 03:29:23.591089 22531 net.cpp:395] relu3_3 -> conv3_3 (in-place)
I0702 03:29:23.591238 22531 net.cpp:150] Setting up relu3_3
I0702 03:29:23.591246 22531 net.cpp:157] Top shape: 6 256 90 120 (16588800)
I0702 03:29:23.591251 22531 net.cpp:165] Memory required for data: 3272140800
I0702 03:29:23.591256 22531 layer_factory.hpp:77] Creating layer pool3
I0702 03:29:23.591261 22531 layer_factory.cpp:91] cuDNN does not support multiple tops. Using Caffe's own pooling layer.
I0702 03:29:23.591284 22531 net.cpp:100] Creating Layer pool3
I0702 03:29:23.591287 22531 net.cpp:434] pool3 <- conv3_3
I0702 03:29:23.591294 22531 net.cpp:408] pool3 -> pool3
I0702 03:29:23.591300 22531 net.cpp:408] pool3 -> pool3_mask
I0702 03:29:23.591348 22531 net.cpp:150] Setting up pool3
I0702 03:29:23.591354 22531 net.cpp:157] Top shape: 6 256 45 60 (4147200)
I0702 03:29:23.591359 22531 net.cpp:157] Top shape: 6 256 45 60 (4147200)
I0702 03:29:23.591363 22531 net.cpp:165] Memory required for data: 3305318400
I0702 03:29:23.591367 22531 layer_factory.hpp:77] Creating layer conv4_1
I0702 03:29:23.591377 22531 net.cpp:100] Creating Layer conv4_1
I0702 03:29:23.591380 22531 net.cpp:434] conv4_1 <- pool3
I0702 03:29:23.591387 22531 net.cpp:408] conv4_1 -> conv4_1
I0702 03:29:23.624152 22531 net.cpp:150] Setting up conv4_1
I0702 03:29:23.624172 22531 net.cpp:157] Top shape: 6 512 45 60 (8294400)
I0702 03:29:23.624177 22531 net.cpp:165] Memory required for data: 3338496000
I0702 03:29:23.624186 22531 layer_factory.hpp:77] Creating layer conv4_1_bn
I0702 03:29:23.624198 22531 net.cpp:100] Creating Layer conv4_1_bn
I0702 03:29:23.624203 22531 net.cpp:434] conv4_1_bn <- conv4_1
I0702 03:29:23.624212 22531 net.cpp:395] conv4_1_bn -> conv4_1 (in-place)
I0702 03:29:23.624486 22531 net.cpp:150] Setting up conv4_1_bn
I0702 03:29:23.624493 22531 net.cpp:157] Top shape: 6 512 45 60 (8294400)
I0702 03:29:23.624497 22531 net.cpp:165] Memory required for data: 3371673600
I0702 03:29:23.624505 22531 layer_factory.hpp:77] Creating layer relu4_1
I0702 03:29:23.624511 22531 net.cpp:100] Creating Layer relu4_1
I0702 03:29:23.624516 22531 net.cpp:434] relu4_1 <- conv4_1
I0702 03:29:23.624521 22531 net.cpp:395] relu4_1 -> conv4_1 (in-place)
I0702 03:29:23.625427 22531 net.cpp:150] Setting up relu4_1
I0702 03:29:23.625438 22531 net.cpp:157] Top shape: 6 512 45 60 (8294400)
I0702 03:29:23.625443 22531 net.cpp:165] Memory required for data: 3404851200
I0702 03:29:23.625448 22531 layer_factory.hpp:77] Creating layer conv4_2
I0702 03:29:23.625463 22531 net.cpp:100] Creating Layer conv4_2
I0702 03:29:23.625468 22531 net.cpp:434] conv4_2 <- conv4_1
I0702 03:29:23.625475 22531 net.cpp:408] conv4_2 -> conv4_2
I0702 03:29:23.684270 22531 net.cpp:150] Setting up conv4_2
I0702 03:29:23.684288 22531 net.cpp:157] Top shape: 6 512 45 60 (8294400)
I0702 03:29:23.684293 22531 net.cpp:165] Memory required for data: 3438028800
I0702 03:29:23.684303 22531 layer_factory.hpp:77] Creating layer conv4_2_bn
I0702 03:29:23.684311 22531 net.cpp:100] Creating Layer conv4_2_bn
I0702 03:29:23.684315 22531 net.cpp:434] conv4_2_bn <- conv4_2
I0702 03:29:23.684320 22531 net.cpp:395] conv4_2_bn -> conv4_2 (in-place)
I0702 03:29:23.684501 22531 net.cpp:150] Setting up conv4_2_bn
I0702 03:29:23.684505 22531 net.cpp:157] Top shape: 6 512 45 60 (8294400)
I0702 03:29:23.684509 22531 net.cpp:165] Memory required for data: 3471206400
I0702 03:29:23.684512 22531 layer_factory.hpp:77] Creating layer relu4_2
I0702 03:29:23.684517 22531 net.cpp:100] Creating Layer relu4_2
I0702 03:29:23.684520 22531 net.cpp:434] relu4_2 <- conv4_2
I0702 03:29:23.684523 22531 net.cpp:395] relu4_2 -> conv4_2 (in-place)
I0702 03:29:23.685264 22531 net.cpp:150] Setting up relu4_2
I0702 03:29:23.685272 22531 net.cpp:157] Top shape: 6 512 45 60 (8294400)
I0702 03:29:23.685276 22531 net.cpp:165] Memory required for data: 3504384000
I0702 03:29:23.685278 22531 layer_factory.hpp:77] Creating layer conv4_3
I0702 03:29:23.685286 22531 net.cpp:100] Creating Layer conv4_3
I0702 03:29:23.685288 22531 net.cpp:434] conv4_3 <- conv4_2
I0702 03:29:23.685293 22531 net.cpp:408] conv4_3 -> conv4_3
I0702 03:29:23.740123 22531 net.cpp:150] Setting up conv4_3
I0702 03:29:23.740144 22531 net.cpp:157] Top shape: 6 512 45 60 (8294400)
I0702 03:29:23.740149 22531 net.cpp:165] Memory required for data: 3537561600
I0702 03:29:23.740159 22531 layer_factory.hpp:77] Creating layer conv4_3_bn
I0702 03:29:23.740170 22531 net.cpp:100] Creating Layer conv4_3_bn
I0702 03:29:23.740191 22531 net.cpp:434] conv4_3_bn <- conv4_3
I0702 03:29:23.740198 22531 net.cpp:395] conv4_3_bn -> conv4_3 (in-place)
I0702 03:29:23.740438 22531 net.cpp:150] Setting up conv4_3_bn
I0702 03:29:23.740445 22531 net.cpp:157] Top shape: 6 512 45 60 (8294400)
I0702 03:29:23.740449 22531 net.cpp:165] Memory required for data: 3570739200
I0702 03:29:23.740456 22531 layer_factory.hpp:77] Creating layer relu4_3
I0702 03:29:23.740463 22531 net.cpp:100] Creating Layer relu4_3
I0702 03:29:23.740468 22531 net.cpp:434] relu4_3 <- conv4_3
I0702 03:29:23.740473 22531 net.cpp:395] relu4_3 -> conv4_3 (in-place)
I0702 03:29:23.740617 22531 net.cpp:150] Setting up relu4_3
I0702 03:29:23.740622 22531 net.cpp:157] Top shape: 6 512 45 60 (8294400)
I0702 03:29:23.740624 22531 net.cpp:165] Memory required for data: 3603916800
I0702 03:29:23.740627 22531 layer_factory.hpp:77] Creating layer pool4
I0702 03:29:23.740629 22531 layer_factory.cpp:91] cuDNN does not support multiple tops. Using Caffe's own pooling layer.
I0702 03:29:23.740633 22531 net.cpp:100] Creating Layer pool4
I0702 03:29:23.740636 22531 net.cpp:434] pool4 <- conv4_3
I0702 03:29:23.740640 22531 net.cpp:408] pool4 -> pool4
I0702 03:29:23.740645 22531 net.cpp:408] pool4 -> pool4_mask
I0702 03:29:23.740679 22531 net.cpp:150] Setting up pool4
I0702 03:29:23.740682 22531 net.cpp:157] Top shape: 6 512 23 30 (2119680)
I0702 03:29:23.740685 22531 net.cpp:157] Top shape: 6 512 23 30 (2119680)
I0702 03:29:23.740689 22531 net.cpp:165] Memory required for data: 3620874240
I0702 03:29:23.740690 22531 layer_factory.hpp:77] Creating layer conv5_1
I0702 03:29:23.740698 22531 net.cpp:100] Creating Layer conv5_1
I0702 03:29:23.740703 22531 net.cpp:434] conv5_1 <- pool4
I0702 03:29:23.740710 22531 net.cpp:408] conv5_1 -> conv5_1
I0702 03:29:23.800945 22531 net.cpp:150] Setting up conv5_1
I0702 03:29:23.800963 22531 net.cpp:157] Top shape: 6 512 23 30 (2119680)
I0702 03:29:23.800966 22531 net.cpp:165] Memory required for data: 3629352960
I0702 03:29:23.800972 22531 layer_factory.hpp:77] Creating layer conv5_1_bn
I0702 03:29:23.800981 22531 net.cpp:100] Creating Layer conv5_1_bn
I0702 03:29:23.800985 22531 net.cpp:434] conv5_1_bn <- conv5_1
I0702 03:29:23.800990 22531 net.cpp:395] conv5_1_bn -> conv5_1 (in-place)
I0702 03:29:23.801210 22531 net.cpp:150] Setting up conv5_1_bn
I0702 03:29:23.801218 22531 net.cpp:157] Top shape: 6 512 23 30 (2119680)
I0702 03:29:23.801221 22531 net.cpp:165] Memory required for data: 3637831680
I0702 03:29:23.801228 22531 layer_factory.hpp:77] Creating layer relu5_1
I0702 03:29:23.801234 22531 net.cpp:100] Creating Layer relu5_1
I0702 03:29:23.801237 22531 net.cpp:434] relu5_1 <- conv5_1
I0702 03:29:23.801241 22531 net.cpp:395] relu5_1 -> conv5_1 (in-place)
I0702 03:29:23.801404 22531 net.cpp:150] Setting up relu5_1
I0702 03:29:23.801411 22531 net.cpp:157] Top shape: 6 512 23 30 (2119680)
I0702 03:29:23.801414 22531 net.cpp:165] Memory required for data: 3646310400
I0702 03:29:23.801417 22531 layer_factory.hpp:77] Creating layer conv5_2
I0702 03:29:23.801424 22531 net.cpp:100] Creating Layer conv5_2
I0702 03:29:23.801427 22531 net.cpp:434] conv5_2 <- conv5_1
I0702 03:29:23.801432 22531 net.cpp:408] conv5_2 -> conv5_2
I0702 03:29:23.856499 22531 net.cpp:150] Setting up conv5_2
I0702 03:29:23.856518 22531 net.cpp:157] Top shape: 6 512 23 30 (2119680)
I0702 03:29:23.856520 22531 net.cpp:165] Memory required for data: 3654789120
I0702 03:29:23.856528 22531 layer_factory.hpp:77] Creating layer conv5_2_bn
I0702 03:29:23.856536 22531 net.cpp:100] Creating Layer conv5_2_bn
I0702 03:29:23.856540 22531 net.cpp:434] conv5_2_bn <- conv5_2
I0702 03:29:23.856545 22531 net.cpp:395] conv5_2_bn -> conv5_2 (in-place)
I0702 03:29:23.856727 22531 net.cpp:150] Setting up conv5_2_bn
I0702 03:29:23.856731 22531 net.cpp:157] Top shape: 6 512 23 30 (2119680)
I0702 03:29:23.856734 22531 net.cpp:165] Memory required for data: 3663267840
I0702 03:29:23.856739 22531 layer_factory.hpp:77] Creating layer relu5_2
I0702 03:29:23.856744 22531 net.cpp:100] Creating Layer relu5_2
I0702 03:29:23.856760 22531 net.cpp:434] relu5_2 <- conv5_2
I0702 03:29:23.856765 22531 net.cpp:395] relu5_2 -> conv5_2 (in-place)
I0702 03:29:23.856889 22531 net.cpp:150] Setting up relu5_2
I0702 03:29:23.856895 22531 net.cpp:157] Top shape: 6 512 23 30 (2119680)
I0702 03:29:23.856897 22531 net.cpp:165] Memory required for data: 3671746560
I0702 03:29:23.856900 22531 layer_factory.hpp:77] Creating layer conv5_3
I0702 03:29:23.856906 22531 net.cpp:100] Creating Layer conv5_3
I0702 03:29:23.856909 22531 net.cpp:434] conv5_3 <- conv5_2
I0702 03:29:23.856914 22531 net.cpp:408] conv5_3 -> conv5_3
I0702 03:29:23.905529 22531 net.cpp:150] Setting up conv5_3
I0702 03:29:23.905549 22531 net.cpp:157] Top shape: 6 512 23 30 (2119680)
I0702 03:29:23.905552 22531 net.cpp:165] Memory required for data: 3680225280
I0702 03:29:23.905558 22531 layer_factory.hpp:77] Creating layer conv5_3_bn
I0702 03:29:23.905567 22531 net.cpp:100] Creating Layer conv5_3_bn
I0702 03:29:23.905570 22531 net.cpp:434] conv5_3_bn <- conv5_3
I0702 03:29:23.905575 22531 net.cpp:395] conv5_3_bn -> conv5_3 (in-place)
I0702 03:29:23.905757 22531 net.cpp:150] Setting up conv5_3_bn
I0702 03:29:23.905761 22531 net.cpp:157] Top shape: 6 512 23 30 (2119680)
I0702 03:29:23.905764 22531 net.cpp:165] Memory required for data: 3688704000
I0702 03:29:23.905769 22531 layer_factory.hpp:77] Creating layer relu5_3
I0702 03:29:23.905774 22531 net.cpp:100] Creating Layer relu5_3
I0702 03:29:23.905777 22531 net.cpp:434] relu5_3 <- conv5_3
I0702 03:29:23.905781 22531 net.cpp:395] relu5_3 -> conv5_3 (in-place)
I0702 03:29:23.905906 22531 net.cpp:150] Setting up relu5_3
I0702 03:29:23.905911 22531 net.cpp:157] Top shape: 6 512 23 30 (2119680)
I0702 03:29:23.905915 22531 net.cpp:165] Memory required for data: 3697182720
I0702 03:29:23.905916 22531 layer_factory.hpp:77] Creating layer pool5
I0702 03:29:23.905920 22531 layer_factory.cpp:91] cuDNN does not support multiple tops. Using Caffe's own pooling layer.
I0702 03:29:23.905923 22531 net.cpp:100] Creating Layer pool5
I0702 03:29:23.905926 22531 net.cpp:434] pool5 <- conv5_3
I0702 03:29:23.905930 22531 net.cpp:408] pool5 -> pool5
I0702 03:29:23.905935 22531 net.cpp:408] pool5 -> pool5_mask
I0702 03:29:23.905967 22531 net.cpp:150] Setting up pool5
I0702 03:29:23.905972 22531 net.cpp:157] Top shape: 6 512 12 15 (552960)
I0702 03:29:23.905974 22531 net.cpp:157] Top shape: 6 512 12 15 (552960)
I0702 03:29:23.905977 22531 net.cpp:165] Memory required for data: 3701606400
I0702 03:29:23.905980 22531 layer_factory.hpp:77] Creating layer upsample5
I0702 03:29:23.905984 22531 net.cpp:100] Creating Layer upsample5
I0702 03:29:23.905987 22531 net.cpp:434] upsample5 <- pool5
I0702 03:29:23.905992 22531 net.cpp:434] upsample5 <- pool5_mask
I0702 03:29:23.905994 22531 net.cpp:408] upsample5 -> pool5_D
I0702 03:29:23.906013 22531 net.cpp:150] Setting up upsample5
I0702 03:29:23.906016 22531 net.cpp:157] Top shape: 6 512 23 30 (2119680)
I0702 03:29:23.906019 22531 net.cpp:165] Memory required for data: 3710085120
I0702 03:29:23.906021 22531 layer_factory.hpp:77] Creating layer conv5_3_D
I0702 03:29:23.906028 22531 net.cpp:100] Creating Layer conv5_3_D
I0702 03:29:23.906030 22531 net.cpp:434] conv5_3_D <- pool5_D
I0702 03:29:23.906034 22531 net.cpp:408] conv5_3_D -> conv5_3_D
I0702 03:29:23.954659 22531 net.cpp:150] Setting up conv5_3_D
I0702 03:29:23.954676 22531 net.cpp:157] Top shape: 6 512 23 30 (2119680)
I0702 03:29:23.954679 22531 net.cpp:165] Memory required for data: 3718563840
I0702 03:29:23.954685 22531 layer_factory.hpp:77] Creating layer conv5_3_D_bn
I0702 03:29:23.954694 22531 net.cpp:100] Creating Layer conv5_3_D_bn
I0702 03:29:23.954699 22531 net.cpp:434] conv5_3_D_bn <- conv5_3_D
I0702 03:29:23.954704 22531 net.cpp:395] conv5_3_D_bn -> conv5_3_D (in-place)
I0702 03:29:23.954886 22531 net.cpp:150] Setting up conv5_3_D_bn
I0702 03:29:23.954891 22531 net.cpp:157] Top shape: 6 512 23 30 (2119680)
I0702 03:29:23.954895 22531 net.cpp:165] Memory required for data: 3727042560
I0702 03:29:23.954898 22531 layer_factory.hpp:77] Creating layer relu5_3_D
I0702 03:29:23.954918 22531 net.cpp:100] Creating Layer relu5_3_D
I0702 03:29:23.954921 22531 net.cpp:434] relu5_3_D <- conv5_3_D
I0702 03:29:23.954924 22531 net.cpp:395] relu5_3_D -> conv5_3_D (in-place)
I0702 03:29:23.955601 22531 net.cpp:150] Setting up relu5_3_D
I0702 03:29:23.955608 22531 net.cpp:157] Top shape: 6 512 23 30 (2119680)
I0702 03:29:23.955611 22531 net.cpp:165] Memory required for data: 3735521280
I0702 03:29:23.955615 22531 layer_factory.hpp:77] Creating layer conv5_2_D
I0702 03:29:23.955621 22531 net.cpp:100] Creating Layer conv5_2_D
I0702 03:29:23.955624 22531 net.cpp:434] conv5_2_D <- conv5_3_D
I0702 03:29:23.955628 22531 net.cpp:408] conv5_2_D -> conv5_2_D
I0702 03:29:24.003645 22531 net.cpp:150] Setting up conv5_2_D
I0702 03:29:24.003671 22531 net.cpp:157] Top shape: 6 512 23 30 (2119680)
I0702 03:29:24.003676 22531 net.cpp:165] Memory required for data: 3744000000
I0702 03:29:24.003684 22531 layer_factory.hpp:77] Creating layer conv5_2_D_bn
I0702 03:29:24.003692 22531 net.cpp:100] Creating Layer conv5_2_D_bn
I0702 03:29:24.003697 22531 net.cpp:434] conv5_2_D_bn <- conv5_2_D
I0702 03:29:24.003702 22531 net.cpp:395] conv5_2_D_bn -> conv5_2_D (in-place)
I0702 03:29:24.003888 22531 net.cpp:150] Setting up conv5_2_D_bn
I0702 03:29:24.003895 22531 net.cpp:157] Top shape: 6 512 23 30 (2119680)
I0702 03:29:24.003897 22531 net.cpp:165] Memory required for data: 3752478720
I0702 03:29:24.003902 22531 layer_factory.hpp:77] Creating layer relu5_2_D
I0702 03:29:24.003908 22531 net.cpp:100] Creating Layer relu5_2_D
I0702 03:29:24.003911 22531 net.cpp:434] relu5_2_D <- conv5_2_D
I0702 03:29:24.003914 22531 net.cpp:395] relu5_2_D -> conv5_2_D (in-place)
I0702 03:29:24.004668 22531 net.cpp:150] Setting up relu5_2_D
I0702 03:29:24.004676 22531 net.cpp:157] Top shape: 6 512 23 30 (2119680)
I0702 03:29:24.004679 22531 net.cpp:165] Memory required for data: 3760957440
I0702 03:29:24.004683 22531 layer_factory.hpp:77] Creating layer conv5_1_D
I0702 03:29:24.004688 22531 net.cpp:100] Creating Layer conv5_1_D
I0702 03:29:24.004691 22531 net.cpp:434] conv5_1_D <- conv5_2_D
I0702 03:29:24.004696 22531 net.cpp:408] conv5_1_D -> conv5_1_D
I0702 03:29:24.060027 22531 net.cpp:150] Setting up conv5_1_D
I0702 03:29:24.060045 22531 net.cpp:157] Top shape: 6 512 23 30 (2119680)
I0702 03:29:24.060047 22531 net.cpp:165] Memory required for data: 3769436160
I0702 03:29:24.060055 22531 layer_factory.hpp:77] Creating layer conv5_1_D_bn
I0702 03:29:24.060063 22531 net.cpp:100] Creating Layer conv5_1_D_bn
I0702 03:29:24.060068 22531 net.cpp:434] conv5_1_D_bn <- conv5_1_D
I0702 03:29:24.060073 22531 net.cpp:395] conv5_1_D_bn -> conv5_1_D (in-place)
I0702 03:29:24.060259 22531 net.cpp:150] Setting up conv5_1_D_bn
I0702 03:29:24.060264 22531 net.cpp:157] Top shape: 6 512 23 30 (2119680)
I0702 03:29:24.060267 22531 net.cpp:165] Memory required for data: 3777914880
I0702 03:29:24.060271 22531 layer_factory.hpp:77] Creating layer relu5_1_D
I0702 03:29:24.060277 22531 net.cpp:100] Creating Layer relu5_1_D
I0702 03:29:24.060279 22531 net.cpp:434] relu5_1_D <- conv5_1_D
I0702 03:29:24.060283 22531 net.cpp:395] relu5_1_D -> conv5_1_D (in-place)
I0702 03:29:24.060410 22531 net.cpp:150] Setting up relu5_1_D
I0702 03:29:24.060415 22531 net.cpp:157] Top shape: 6 512 23 30 (2119680)
I0702 03:29:24.060417 22531 net.cpp:165] Memory required for data: 3786393600
I0702 03:29:24.060420 22531 layer_factory.hpp:77] Creating layer upsample4
I0702 03:29:24.060425 22531 net.cpp:100] Creating Layer upsample4
I0702 03:29:24.060428 22531 net.cpp:434] upsample4 <- conv5_1_D
I0702 03:29:24.060431 22531 net.cpp:434] upsample4 <- pool4_mask
I0702 03:29:24.060436 22531 net.cpp:408] upsample4 -> pool4_D
I0702 03:29:24.060461 22531 net.cpp:150] Setting up upsample4
I0702 03:29:24.060464 22531 net.cpp:157] Top shape: 6 512 45 60 (8294400)
I0702 03:29:24.060467 22531 net.cpp:165] Memory required for data: 3819571200
I0702 03:29:24.060469 22531 layer_factory.hpp:77] Creating layer conv4_3_D
I0702 03:29:24.060475 22531 net.cpp:100] Creating Layer conv4_3_D
I0702 03:29:24.060478 22531 net.cpp:434] conv4_3_D <- pool4_D
I0702 03:29:24.060497 22531 net.cpp:408] conv4_3_D -> conv4_3_D
I0702 03:29:24.114758 22531 net.cpp:150] Setting up conv4_3_D
I0702 03:29:24.114775 22531 net.cpp:157] Top shape: 6 512 45 60 (8294400)
I0702 03:29:24.114778 22531 net.cpp:165] Memory required for data: 3852748800
I0702 03:29:24.114792 22531 layer_factory.hpp:77] Creating layer conv4_3_D_bn
I0702 03:29:24.114800 22531 net.cpp:100] Creating Layer conv4_3_D_bn
I0702 03:29:24.114805 22531 net.cpp:434] conv4_3_D_bn <- conv4_3_D
I0702 03:29:24.114809 22531 net.cpp:395] conv4_3_D_bn -> conv4_3_D (in-place)
I0702 03:29:24.115002 22531 net.cpp:150] Setting up conv4_3_D_bn
I0702 03:29:24.115007 22531 net.cpp:157] Top shape: 6 512 45 60 (8294400)
I0702 03:29:24.115010 22531 net.cpp:165] Memory required for data: 3885926400
I0702 03:29:24.115015 22531 layer_factory.hpp:77] Creating layer relu4_3_D
I0702 03:29:24.115020 22531 net.cpp:100] Creating Layer relu4_3_D
I0702 03:29:24.115022 22531 net.cpp:434] relu4_3_D <- conv4_3_D
I0702 03:29:24.115025 22531 net.cpp:395] relu4_3_D -> conv4_3_D (in-place)
I0702 03:29:24.115159 22531 net.cpp:150] Setting up relu4_3_D
I0702 03:29:24.115164 22531 net.cpp:157] Top shape: 6 512 45 60 (8294400)
I0702 03:29:24.115167 22531 net.cpp:165] Memory required for data: 3919104000
I0702 03:29:24.115170 22531 layer_factory.hpp:77] Creating layer conv4_2_D
I0702 03:29:24.115177 22531 net.cpp:100] Creating Layer conv4_2_D
I0702 03:29:24.115180 22531 net.cpp:434] conv4_2_D <- conv4_3_D
I0702 03:29:24.115185 22531 net.cpp:408] conv4_2_D -> conv4_2_D
I0702 03:29:24.164510 22531 net.cpp:150] Setting up conv4_2_D
I0702 03:29:24.164527 22531 net.cpp:157] Top shape: 6 512 45 60 (8294400)
I0702 03:29:24.164530 22531 net.cpp:165] Memory required for data: 3952281600
I0702 03:29:24.164536 22531 layer_factory.hpp:77] Creating layer conv4_2_D_bn
I0702 03:29:24.164551 22531 net.cpp:100] Creating Layer conv4_2_D_bn
I0702 03:29:24.164556 22531 net.cpp:434] conv4_2_D_bn <- conv4_2_D
I0702 03:29:24.164561 22531 net.cpp:395] conv4_2_D_bn -> conv4_2_D (in-place)
I0702 03:29:24.164757 22531 net.cpp:150] Setting up conv4_2_D_bn
I0702 03:29:24.164762 22531 net.cpp:157] Top shape: 6 512 45 60 (8294400)
I0702 03:29:24.164763 22531 net.cpp:165] Memory required for data: 3985459200
I0702 03:29:24.164768 22531 layer_factory.hpp:77] Creating layer relu4_2_D
I0702 03:29:24.164773 22531 net.cpp:100] Creating Layer relu4_2_D
I0702 03:29:24.164777 22531 net.cpp:434] relu4_2_D <- conv4_2_D
I0702 03:29:24.164779 22531 net.cpp:395] relu4_2_D -> conv4_2_D (in-place)
I0702 03:29:24.164909 22531 net.cpp:150] Setting up relu4_2_D
I0702 03:29:24.164914 22531 net.cpp:157] Top shape: 6 512 45 60 (8294400)
I0702 03:29:24.164917 22531 net.cpp:165] Memory required for data: 4018636800
I0702 03:29:24.164921 22531 layer_factory.hpp:77] Creating layer conv4_1_D
I0702 03:29:24.164927 22531 net.cpp:100] Creating Layer conv4_1_D
I0702 03:29:24.164930 22531 net.cpp:434] conv4_1_D <- conv4_2_D
I0702 03:29:24.164935 22531 net.cpp:408] conv4_1_D -> conv4_1_D
I0702 03:29:24.190469 22531 net.cpp:150] Setting up conv4_1_D
I0702 03:29:24.190485 22531 net.cpp:157] Top shape: 6 256 45 60 (4147200)
I0702 03:29:24.190490 22531 net.cpp:165] Memory required for data: 4035225600
I0702 03:29:24.190495 22531 layer_factory.hpp:77] Creating layer conv4_1_D_bn
I0702 03:29:24.190505 22531 net.cpp:100] Creating Layer conv4_1_D_bn
I0702 03:29:24.190510 22531 net.cpp:434] conv4_1_D_bn <- conv4_1_D
I0702 03:29:24.190515 22531 net.cpp:395] conv4_1_D_bn -> conv4_1_D (in-place)
I0702 03:29:24.190709 22531 net.cpp:150] Setting up conv4_1_D_bn
I0702 03:29:24.190713 22531 net.cpp:157] Top shape: 6 256 45 60 (4147200)
I0702 03:29:24.190716 22531 net.cpp:165] Memory required for data: 4051814400
I0702 03:29:24.190721 22531 layer_factory.hpp:77] Creating layer relu4_1_D
I0702 03:29:24.190726 22531 net.cpp:100] Creating Layer relu4_1_D
I0702 03:29:24.190727 22531 net.cpp:434] relu4_1_D <- conv4_1_D
I0702 03:29:24.190732 22531 net.cpp:395] relu4_1_D -> conv4_1_D (in-place)
I0702 03:29:24.190860 22531 net.cpp:150] Setting up relu4_1_D
I0702 03:29:24.190878 22531 net.cpp:157] Top shape: 6 256 45 60 (4147200)
I0702 03:29:24.190881 22531 net.cpp:165] Memory required for data: 4068403200
I0702 03:29:24.190884 22531 layer_factory.hpp:77] Creating layer upsample3
I0702 03:29:24.190889 22531 net.cpp:100] Creating Layer upsample3
I0702 03:29:24.190892 22531 net.cpp:434] upsample3 <- conv4_1_D
I0702 03:29:24.190896 22531 net.cpp:434] upsample3 <- pool3_mask
I0702 03:29:24.190899 22531 net.cpp:408] upsample3 -> pool3_D
I0702 03:29:24.190904 22531 upsample_layer.cpp:27] Params 'pad_out_{}_' are deprecated. Please declare upsample height and width useing the upsample_h, upsample_w parameters.
I0702 03:29:24.190925 22531 net.cpp:150] Setting up upsample3
I0702 03:29:24.190929 22531 net.cpp:157] Top shape: 6 256 90 120 (16588800)
I0702 03:29:24.190932 22531 net.cpp:165] Memory required for data: 4134758400
I0702 03:29:24.190934 22531 layer_factory.hpp:77] Creating layer conv3_3_D
I0702 03:29:24.190940 22531 net.cpp:100] Creating Layer conv3_3_D
I0702 03:29:24.190943 22531 net.cpp:434] conv3_3_D <- pool3_D
I0702 03:29:24.190948 22531 net.cpp:408] conv3_3_D -> conv3_3_D
I0702 03:29:24.204778 22531 net.cpp:150] Setting up conv3_3_D
I0702 03:29:24.204794 22531 net.cpp:157] Top shape: 6 256 90 120 (16588800)
I0702 03:29:24.204797 22531 net.cpp:165] Memory required for data: 4201113600
I0702 03:29:24.204804 22531 layer_factory.hpp:77] Creating layer conv3_3_D_bn
I0702 03:29:24.204812 22531 net.cpp:100] Creating Layer conv3_3_D_bn
I0702 03:29:24.204815 22531 net.cpp:434] conv3_3_D_bn <- conv3_3_D
I0702 03:29:24.204819 22531 net.cpp:395] conv3_3_D_bn -> conv3_3_D (in-place)
I0702 03:29:24.205027 22531 net.cpp:150] Setting up conv3_3_D_bn
I0702 03:29:24.205032 22531 net.cpp:157] Top shape: 6 256 90 120 (16588800)
I0702 03:29:24.205034 22531 net.cpp:165] Memory required for data: 4267468800
I0702 03:29:24.205039 22531 layer_factory.hpp:77] Creating layer relu3_3_D
I0702 03:29:24.205044 22531 net.cpp:100] Creating Layer relu3_3_D
I0702 03:29:24.205046 22531 net.cpp:434] relu3_3_D <- conv3_3_D
I0702 03:29:24.205050 22531 net.cpp:395] relu3_3_D -> conv3_3_D (in-place)
I0702 03:29:24.205710 22531 net.cpp:150] Setting up relu3_3_D
I0702 03:29:24.205718 22531 net.cpp:157] Top shape: 6 256 90 120 (16588800)
I0702 03:29:24.205721 22531 net.cpp:165] Memory required for data: 4333824000
I0702 03:29:24.205724 22531 layer_factory.hpp:77] Creating layer conv3_2_D
I0702 03:29:24.205730 22531 net.cpp:100] Creating Layer conv3_2_D
I0702 03:29:24.205734 22531 net.cpp:434] conv3_2_D <- conv3_3_D
I0702 03:29:24.205739 22531 net.cpp:408] conv3_2_D -> conv3_2_D
I0702 03:29:24.219066 22531 net.cpp:150] Setting up conv3_2_D
I0702 03:29:24.219082 22531 net.cpp:157] Top shape: 6 256 90 120 (16588800)
I0702 03:29:24.219085 22531 net.cpp:165] Memory required for data: 4400179200
I0702 03:29:24.219091 22531 layer_factory.hpp:77] Creating layer conv3_2_D_bn
I0702 03:29:24.219099 22531 net.cpp:100] Creating Layer conv3_2_D_bn
I0702 03:29:24.219103 22531 net.cpp:434] conv3_2_D_bn <- conv3_2_D
I0702 03:29:24.219108 22531 net.cpp:395] conv3_2_D_bn -> conv3_2_D (in-place)
I0702 03:29:24.219323 22531 net.cpp:150] Setting up conv3_2_D_bn
I0702 03:29:24.219327 22531 net.cpp:157] Top shape: 6 256 90 120 (16588800)
I0702 03:29:24.219329 22531 net.cpp:165] Memory required for data: 4466534400
I0702 03:29:24.219334 22531 layer_factory.hpp:77] Creating layer relu3_2_D
I0702 03:29:24.219338 22531 net.cpp:100] Creating Layer relu3_2_D
I0702 03:29:24.219341 22531 net.cpp:434] relu3_2_D <- conv3_2_D
I0702 03:29:24.219344 22531 net.cpp:395] relu3_2_D -> conv3_2_D (in-place)
I0702 03:29:24.220031 22531 net.cpp:150] Setting up relu3_2_D
I0702 03:29:24.220041 22531 net.cpp:157] Top shape: 6 256 90 120 (16588800)
I0702 03:29:24.220043 22531 net.cpp:165] Memory required for data: 4532889600
I0702 03:29:24.220046 22531 layer_factory.hpp:77] Creating layer conv3_1_D
I0702 03:29:24.220053 22531 net.cpp:100] Creating Layer conv3_1_D
I0702 03:29:24.220057 22531 net.cpp:434] conv3_1_D <- conv3_2_D
I0702 03:29:24.220075 22531 net.cpp:408] conv3_1_D -> conv3_1_D
I0702 03:29:24.228190 22531 net.cpp:150] Setting up conv3_1_D
I0702 03:29:24.228205 22531 net.cpp:157] Top shape: 6 128 90 120 (8294400)
I0702 03:29:24.228209 22531 net.cpp:165] Memory required for data: 4566067200
I0702 03:29:24.228215 22531 layer_factory.hpp:77] Creating layer conv3_1_D_bn
I0702 03:29:24.228222 22531 net.cpp:100] Creating Layer conv3_1_D_bn
I0702 03:29:24.228226 22531 net.cpp:434] conv3_1_D_bn <- conv3_1_D
I0702 03:29:24.228230 22531 net.cpp:395] conv3_1_D_bn -> conv3_1_D (in-place)
I0702 03:29:24.228442 22531 net.cpp:150] Setting up conv3_1_D_bn
I0702 03:29:24.228446 22531 net.cpp:157] Top shape: 6 128 90 120 (8294400)
I0702 03:29:24.228451 22531 net.cpp:165] Memory required for data: 4599244800
I0702 03:29:24.228454 22531 layer_factory.hpp:77] Creating layer relu3_1_D
I0702 03:29:24.228459 22531 net.cpp:100] Creating Layer relu3_1_D
I0702 03:29:24.228462 22531 net.cpp:434] relu3_1_D <- conv3_1_D
I0702 03:29:24.228466 22531 net.cpp:395] relu3_1_D -> conv3_1_D (in-place)
I0702 03:29:24.228602 22531 net.cpp:150] Setting up relu3_1_D
I0702 03:29:24.228611 22531 net.cpp:157] Top shape: 6 128 90 120 (8294400)
I0702 03:29:24.228615 22531 net.cpp:165] Memory required for data: 4632422400
I0702 03:29:24.228617 22531 layer_factory.hpp:77] Creating layer upsample2
I0702 03:29:24.228621 22531 net.cpp:100] Creating Layer upsample2
I0702 03:29:24.228624 22531 net.cpp:434] upsample2 <- conv3_1_D
I0702 03:29:24.228627 22531 net.cpp:434] upsample2 <- pool2_mask
I0702 03:29:24.228631 22531 net.cpp:408] upsample2 -> pool2_D
I0702 03:29:24.228637 22531 upsample_layer.cpp:27] Params 'pad_out_{}_' are deprecated. Please declare upsample height and width useing the upsample_h, upsample_w parameters.
I0702 03:29:24.228660 22531 net.cpp:150] Setting up upsample2
I0702 03:29:24.228664 22531 net.cpp:157] Top shape: 6 128 180 240 (33177600)
I0702 03:29:24.228667 22531 net.cpp:165] Memory required for data: 4765132800
I0702 03:29:24.228669 22531 layer_factory.hpp:77] Creating layer conv2_2_D
I0702 03:29:24.228677 22531 net.cpp:100] Creating Layer conv2_2_D
I0702 03:29:24.228679 22531 net.cpp:434] conv2_2_D <- pool2_D
I0702 03:29:24.228687 22531 net.cpp:408] conv2_2_D -> conv2_2_D
I0702 03:29:24.233428 22531 net.cpp:150] Setting up conv2_2_D
I0702 03:29:24.233443 22531 net.cpp:157] Top shape: 6 128 180 240 (33177600)
I0702 03:29:24.233445 22531 net.cpp:165] Memory required for data: 4897843200
I0702 03:29:24.233453 22531 layer_factory.hpp:77] Creating layer conv2_2_D_bn
I0702 03:29:24.233461 22531 net.cpp:100] Creating Layer conv2_2_D_bn
I0702 03:29:24.233465 22531 net.cpp:434] conv2_2_D_bn <- conv2_2_D
I0702 03:29:24.233469 22531 net.cpp:395] conv2_2_D_bn -> conv2_2_D (in-place)
I0702 03:29:24.233710 22531 net.cpp:150] Setting up conv2_2_D_bn
I0702 03:29:24.233714 22531 net.cpp:157] Top shape: 6 128 180 240 (33177600)
I0702 03:29:24.233716 22531 net.cpp:165] Memory required for data: 5030553600
I0702 03:29:24.233721 22531 layer_factory.hpp:77] Creating layer relu2_2_D
I0702 03:29:24.233726 22531 net.cpp:100] Creating Layer relu2_2_D
I0702 03:29:24.233728 22531 net.cpp:434] relu2_2_D <- conv2_2_D
I0702 03:29:24.233732 22531 net.cpp:395] relu2_2_D -> conv2_2_D (in-place)
I0702 03:29:24.233873 22531 net.cpp:150] Setting up relu2_2_D
I0702 03:29:24.233880 22531 net.cpp:157] Top shape: 6 128 180 240 (33177600)
I0702 03:29:24.233881 22531 net.cpp:165] Memory required for data: 5163264000
I0702 03:29:24.233885 22531 layer_factory.hpp:77] Creating layer conv2_1_D
I0702 03:29:24.233892 22531 net.cpp:100] Creating Layer conv2_1_D
I0702 03:29:24.233896 22531 net.cpp:434] conv2_1_D <- conv2_2_D
I0702 03:29:24.233901 22531 net.cpp:408] conv2_1_D -> conv2_1_D
I0702 03:29:24.238342 22531 net.cpp:150] Setting up conv2_1_D
I0702 03:29:24.238359 22531 net.cpp:157] Top shape: 6 64 180 240 (16588800)
I0702 03:29:24.238364 22531 net.cpp:165] Memory required for data: 5229619200
I0702 03:29:24.238373 22531 layer_factory.hpp:77] Creating layer conv2_1_D_bn
I0702 03:29:24.238387 22531 net.cpp:100] Creating Layer conv2_1_D_bn
I0702 03:29:24.238409 22531 net.cpp:434] conv2_1_D_bn <- conv2_1_D
I0702 03:29:24.238416 22531 net.cpp:395] conv2_1_D_bn -> conv2_1_D (in-place)
I0702 03:29:24.238672 22531 net.cpp:150] Setting up conv2_1_D_bn
I0702 03:29:24.238677 22531 net.cpp:157] Top shape: 6 64 180 240 (16588800)
I0702 03:29:24.238679 22531 net.cpp:165] Memory required for data: 5295974400
I0702 03:29:24.238684 22531 layer_factory.hpp:77] Creating layer relu2_1_D
I0702 03:29:24.238689 22531 net.cpp:100] Creating Layer relu2_1_D
I0702 03:29:24.238692 22531 net.cpp:434] relu2_1_D <- conv2_1_D
I0702 03:29:24.238696 22531 net.cpp:395] relu2_1_D -> conv2_1_D (in-place)
I0702 03:29:24.238862 22531 net.cpp:150] Setting up relu2_1_D
I0702 03:29:24.238867 22531 net.cpp:157] Top shape: 6 64 180 240 (16588800)
I0702 03:29:24.238870 22531 net.cpp:165] Memory required for data: 5362329600
I0702 03:29:24.238873 22531 layer_factory.hpp:77] Creating layer upsample1
I0702 03:29:24.238878 22531 net.cpp:100] Creating Layer upsample1
I0702 03:29:24.238880 22531 net.cpp:434] upsample1 <- conv2_1_D
I0702 03:29:24.238884 22531 net.cpp:434] upsample1 <- pool1_mask
I0702 03:29:24.238888 22531 net.cpp:408] upsample1 -> pool1_D
I0702 03:29:24.238894 22531 upsample_layer.cpp:27] Params 'pad_out_{}_' are deprecated. Please declare upsample height and width useing the upsample_h, upsample_w parameters.
I0702 03:29:24.238915 22531 net.cpp:150] Setting up upsample1
I0702 03:29:24.238921 22531 net.cpp:157] Top shape: 6 64 360 480 (66355200)
I0702 03:29:24.238925 22531 net.cpp:165] Memory required for data: 5627750400
I0702 03:29:24.238929 22531 layer_factory.hpp:77] Creating layer conv1_2_D
I0702 03:29:24.238939 22531 net.cpp:100] Creating Layer conv1_2_D
I0702 03:29:24.238942 22531 net.cpp:434] conv1_2_D <- pool1_D
I0702 03:29:24.238948 22531 net.cpp:408] conv1_2_D -> conv1_2_D
I0702 03:29:24.241237 22531 net.cpp:150] Setting up conv1_2_D
I0702 03:29:24.241247 22531 net.cpp:157] Top shape: 6 64 360 480 (66355200)
I0702 03:29:24.241250 22531 net.cpp:165] Memory required for data: 5893171200
I0702 03:29:24.241256 22531 layer_factory.hpp:77] Creating layer conv1_2_D_bn
I0702 03:29:24.241263 22531 net.cpp:100] Creating Layer conv1_2_D_bn
I0702 03:29:24.241266 22531 net.cpp:434] conv1_2_D_bn <- conv1_2_D
I0702 03:29:24.241271 22531 net.cpp:395] conv1_2_D_bn -> conv1_2_D (in-place)
I0702 03:29:24.242377 22531 net.cpp:150] Setting up conv1_2_D_bn
I0702 03:29:24.242388 22531 net.cpp:157] Top shape: 6 64 360 480 (66355200)
I0702 03:29:24.242391 22531 net.cpp:165] Memory required for data: 6158592000
I0702 03:29:24.242398 22531 layer_factory.hpp:77] Creating layer relu1_2_D
I0702 03:29:24.242404 22531 net.cpp:100] Creating Layer relu1_2_D
I0702 03:29:24.242408 22531 net.cpp:434] relu1_2_D <- conv1_2_D
I0702 03:29:24.242411 22531 net.cpp:395] relu1_2_D -> conv1_2_D (in-place)
I0702 03:29:24.242566 22531 net.cpp:150] Setting up relu1_2_D
I0702 03:29:24.242573 22531 net.cpp:157] Top shape: 6 64 360 480 (66355200)
I0702 03:29:24.242575 22531 net.cpp:165] Memory required for data: 6424012800
I0702 03:29:24.242578 22531 layer_factory.hpp:77] Creating layer conv1_1_D
I0702 03:29:24.242586 22531 net.cpp:100] Creating Layer conv1_1_D
I0702 03:29:24.242589 22531 net.cpp:434] conv1_1_D <- conv1_2_D
I0702 03:29:24.242594 22531 net.cpp:408] conv1_1_D -> conv1_1_D
I0702 03:29:24.244192 22531 net.cpp:150] Setting up conv1_1_D
I0702 03:29:24.244205 22531 net.cpp:157] Top shape: 6 3 360 480 (3110400)
I0702 03:29:24.244209 22531 net.cpp:165] Memory required for data: 6436454400
I0702 03:29:24.244213 22531 layer_factory.hpp:77] Creating layer conv1_1_D_conv1_1_D_0_split
I0702 03:29:24.244220 22531 net.cpp:100] Creating Layer conv1_1_D_conv1_1_D_0_split
I0702 03:29:24.244222 22531 net.cpp:434] conv1_1_D_conv1_1_D_0_split <- conv1_1_D
I0702 03:29:24.244226 22531 net.cpp:408] conv1_1_D_conv1_1_D_0_split -> conv1_1_D_conv1_1_D_0_split_0
I0702 03:29:24.244231 22531 net.cpp:408] conv1_1_D_conv1_1_D_0_split -> conv1_1_D_conv1_1_D_0_split_1
I0702 03:29:24.244271 22531 net.cpp:150] Setting up conv1_1_D_conv1_1_D_0_split
I0702 03:29:24.244290 22531 net.cpp:157] Top shape: 6 3 360 480 (3110400)
I0702 03:29:24.244294 22531 net.cpp:157] Top shape: 6 3 360 480 (3110400)
I0702 03:29:24.244298 22531 net.cpp:165] Memory required for data: 6461337600
I0702 03:29:24.244302 22531 layer_factory.hpp:77] Creating layer loss
I0702 03:29:24.244312 22531 net.cpp:100] Creating Layer loss
I0702 03:29:24.244315 22531 net.cpp:434] loss <- conv1_1_D_conv1_1_D_0_split_0
I0702 03:29:24.244321 22531 net.cpp:434] loss <- labelNir_dataNir_1_split_0
I0702 03:29:24.244328 22531 net.cpp:408] loss -> loss
I0702 03:29:24.244338 22531 layer_factory.hpp:77] Creating layer loss
I0702 03:29:24.249233 22531 net.cpp:150] Setting up loss
I0702 03:29:24.249258 22531 net.cpp:157] Top shape: (1)
I0702 03:29:24.249264 22531 net.cpp:160]     with loss weight 1
I0702 03:29:24.249275 22531 net.cpp:165] Memory required for data: 6461337604
I0702 03:29:24.249281 22531 layer_factory.hpp:77] Creating layer accuracy
I0702 03:29:24.249290 22531 net.cpp:100] Creating Layer accuracy
I0702 03:29:24.249294 22531 net.cpp:434] accuracy <- conv1_1_D_conv1_1_D_0_split_1
I0702 03:29:24.249300 22531 net.cpp:434] accuracy <- labelNir_dataNir_1_split_1
I0702 03:29:24.249306 22531 net.cpp:408] accuracy -> accuracy
I0702 03:29:24.249315 22531 net.cpp:408] accuracy -> per_class_accuracy
I0702 03:29:24.249397 22531 net.cpp:150] Setting up accuracy
I0702 03:29:24.249406 22531 net.cpp:157] Top shape: (1)
I0702 03:29:24.249411 22531 net.cpp:157] Top shape: 3 (3)
I0702 03:29:24.249415 22531 net.cpp:165] Memory required for data: 6461337620
I0702 03:29:24.249419 22531 net.cpp:228] accuracy does not need backward computation.
I0702 03:29:24.249423 22531 net.cpp:226] loss needs backward computation.
I0702 03:29:24.249428 22531 net.cpp:226] conv1_1_D_conv1_1_D_0_split needs backward computation.
I0702 03:29:24.249433 22531 net.cpp:226] conv1_1_D needs backward computation.
…
