…
I0116 14:35:35.659462 16169 net.cpp:100] Creating Layer dataB
I0116 14:35:35.659466 16169 net.cpp:408] dataB -> dataB
I0116 14:35:35.659473 16169 net.cpp:408] dataB -> labelB
I0116 14:35:35.659481 16169 dense_image_data_layer.cpp:49] Opening file /home/enddl22/workspace/SegNet-Tutorial/train
_and_test_data/redEdge_OrthMultiData/trainB.txt
I0116 14:35:35.659746 16169 dense_image_data_layer.cpp:64] A total of 399 examples.
I0116 14:35:35.661955 16169 dense_image_data_layer.cpp:117] output data size: 4,1,360,480
I0116 14:35:35.664459 16169 net.cpp:150] Setting up dataB
I0116 14:35:35.664480 16169 net.cpp:157] Top shape: 4 1 360 480 (691200)
I0116 14:35:35.664485 16169 net.cpp:157] Top shape: 4 1 360 480 (691200)
I0116 14:35:35.664489 16169 net.cpp:165] Memory required for data: 5529600
I0116 14:35:35.664494 16169 layer_factory.hpp:77] Creating layer labelB_dataB_1_split
I0116 14:35:35.664503 16169 net.cpp:100] Creating Layer labelB_dataB_1_split
I0116 14:35:35.664506 16169 net.cpp:434] labelB_dataB_1_split <- labelB
I0116 14:35:35.664512 16169 net.cpp:408] labelB_dataB_1_split -> labelB_dataB_1_split_0
I0116 14:35:35.664520 16169 net.cpp:408] labelB_dataB_1_split -> labelB_dataB_1_split_1
I0116 14:35:35.665062 16169 net.cpp:150] Setting up labelB_dataB_1_split
I0116 14:35:35.665071 16169 net.cpp:157] Top shape: 4 1 360 480 (691200)
I0116 14:35:35.665073 16169 net.cpp:157] Top shape: 4 1 360 480 (691200)
I0116 14:35:35.665076 16169 net.cpp:165] Memory required for data: 11059200
I0116 14:35:35.665078 16169 layer_factory.hpp:77] Creating layer dataCIR
I0116 14:35:35.665084 16169 net.cpp:100] Creating Layer dataCIR
I0116 14:35:35.665087 16169 net.cpp:408] dataCIR -> dataCIR
I0116 14:35:35.665093 16169 dense_image_only_data_layer.cpp:49] Opening file /home/enddl22/workspace/SegNet-Tutorial/
train_and_test_data/redEdge_OrthMultiData/trainCIR.txt
I0116 14:35:35.665205 16169 dense_image_only_data_layer.cpp:65] A total of 399 examples.
I0116 14:35:35.669169 16169 dense_image_only_data_layer.cpp:118] output data size: 4,3,360,480
I0116 14:35:35.672370 16169 net.cpp:150] Setting up dataCIR
I0116 14:35:35.672391 16169 net.cpp:157] Top shape: 4 3 360 480 (2073600)
I0116 14:35:35.672396 16169 net.cpp:165] Memory required for data: 19353600
I0116 14:35:35.672402 16169 layer_factory.hpp:77] Creating layer dataG
I0116 14:35:35.672412 16169 net.cpp:100] Creating Layer dataG
I0116 14:35:35.672417 16169 net.cpp:408] dataG -> dataG
I0116 14:35:35.672430 16169 dense_image_only_data_layer.cpp:49] Opening file /home/enddl22/workspace/SegNet-Tutorial/
train_and_test_data/redEdge_OrthMultiData/trainG.txt
I0116 14:35:35.672602 16169 dense_image_only_data_layer.cpp:65] A total of 399 examples.
I0116 14:35:35.674837 16169 dense_image_only_data_layer.cpp:118] output data size: 4,1,360,480
I0116 14:35:35.678043 16169 net.cpp:150] Setting up dataG
I0116 14:35:35.678066 16169 net.cpp:157] Top shape: 4 1 360 480 (691200)
I0116 14:35:35.678071 16169 net.cpp:165] Memory required for data: 22118400
I0116 14:35:35.678077 16169 layer_factory.hpp:77] Creating layer dataNDVI
I0116 14:35:35.678089 16169 net.cpp:100] Creating Layer dataNDVI
I0116 14:35:35.678095 16169 net.cpp:408] dataNDVI -> dataNDVI
I0116 14:35:35.678107 16169 dense_image_only_data_layer.cpp:49] Opening file /home/enddl22/workspace/SegNet-Tutorial/
train_and_test_data/redEdge_OrthMultiData/trainNDVI.txt
I0116 14:35:35.678263 16169 dense_image_only_data_layer.cpp:65] A total of 399 examples.
I0116 14:35:35.679667 16169 dense_image_only_data_layer.cpp:118] output data size: 4,1,360,480
I0116 14:35:35.680974 16169 net.cpp:150] Setting up dataNDVI
I0116 14:35:35.680986 16169 net.cpp:157] Top shape: 4 1 360 480 (691200)
I0116 14:35:35.681005 16169 net.cpp:165] Memory required for data: 24883200
I0116 14:35:35.681010 16169 layer_factory.hpp:77] Creating layer dataNIR
I0116 14:35:35.681016 16169 net.cpp:100] Creating Layer dataNIR
I0116 14:35:35.681020 16169 net.cpp:408] dataNIR -> dataNIR
I0116 14:35:35.681028 16169 dense_image_only_data_layer.cpp:49] Opening file /home/enddl22/workspace/SegNet-Tutorial/
train_and_test_data/redEdge_OrthMultiData/trainNIR.txt
I0116 14:35:35.681135 16169 dense_image_only_data_layer.cpp:65] A total of 399 examples.
I0116 14:35:35.682768 16169 dense_image_only_data_layer.cpp:118] output data size: 4,1,360,480
I0116 14:35:35.684187 16169 net.cpp:150] Setting up dataNIR
I0116 14:35:35.684206 16169 net.cpp:157] Top shape: 4 1 360 480 (691200)
I0116 14:35:35.684209 16169 net.cpp:165] Memory required for data: 27648000
I0116 14:35:35.684213 16169 layer_factory.hpp:77] Creating layer dataR
I0116 14:35:35.684219 16169 net.cpp:100] Creating Layer dataR
I0116 14:35:35.684223 16169 net.cpp:408] dataR -> dataR
I0116 14:35:35.684232 16169 dense_image_only_data_layer.cpp:49] Opening file /home/enddl22/workspace/SegNet-Tutorial/
train_and_test_data/redEdge_OrthMultiData/trainR.txt
I0116 14:35:35.684340 16169 dense_image_only_data_layer.cpp:65] A total of 399 examples.
I0116 14:35:35.686429 16169 dense_image_only_data_layer.cpp:118] output data size: 4,1,360,480
I0116 14:35:35.688119 16169 net.cpp:150] Setting up dataR
I0116 14:35:35.688138 16169 net.cpp:157] Top shape: 4 1 360 480 (691200)
I0116 14:35:35.688143 16169 net.cpp:165] Memory required for data: 30412800
I0116 14:35:35.688148 16169 layer_factory.hpp:77] Creating layer dataRE
I0116 14:35:35.688158 16169 net.cpp:100] Creating Layer dataRE
I0116 14:35:35.688163 16169 net.cpp:408] dataRE -> dataRE
I0116 14:35:35.688174 16169 dense_image_only_data_layer.cpp:49] Opening file /home/enddl22/workspace/SegNet-Tutorial/
train_and_test_data/redEdge_OrthMultiData/trainRE.txt
I0116 14:35:35.688338 16169 dense_image_only_data_layer.cpp:65] A total of 399 examples.
I0116 14:35:35.690579 16169 dense_image_only_data_layer.cpp:118] output data size: 4,1,360,480
I0116 14:35:35.692987 16169 net.cpp:150] Setting up dataRE
I0116 14:35:35.693011 16169 net.cpp:157] Top shape: 4 1 360 480 (691200)
I0116 14:35:35.693018 16169 net.cpp:165] Memory required for data: 33177600
I0116 14:35:35.693025 16169 layer_factory.hpp:77] Creating layer dataRGB
I0116 14:35:35.693044 16169 net.cpp:100] Creating Layer dataRGB
I0116 14:35:35.693051 16169 net.cpp:408] dataRGB -> dataRGB
I0116 14:35:35.693064 16169 dense_image_only_data_layer.cpp:49] Opening file /home/enddl22/workspace/SegNet-Tutorial/
train_and_test_data/redEdge_OrthMultiData/trainRGB.txt
I0116 14:35:35.693199 16169 dense_image_only_data_layer.cpp:65] A total of 399 examples.
I0116 14:35:35.700196 16169 dense_image_only_data_layer.cpp:118] output data size: 4,3,360,480
I0116 14:35:35.704569 16169 net.cpp:150] Setting up dataRGB
I0116 14:35:35.704591 16169 net.cpp:157] Top shape: 4 3 360 480 (2073600)
I0116 14:35:35.704597 16169 net.cpp:165] Memory required for data: 41472000
I0116 14:35:35.704603 16169 layer_factory.hpp:77] Creating layer data
I0116 14:35:35.704613 16169 net.cpp:100] Creating Layer data
I0116 14:35:35.704618 16169 net.cpp:434] data <- dataB
I0116 14:35:35.704625 16169 net.cpp:434] data <- dataCIR
I0116 14:35:35.704629 16169 net.cpp:434] data <- dataG
I0116 14:35:35.704633 16169 net.cpp:434] data <- dataNDVI
I0116 14:35:35.704638 16169 net.cpp:434] data <- dataNIR
I0116 14:35:35.704641 16169 net.cpp:434] data <- dataR
I0116 14:35:35.704645 16169 net.cpp:434] data <- dataRE
I0116 14:35:35.704649 16169 net.cpp:434] data <- dataRGB
I0116 14:35:35.704655 16169 net.cpp:408] data -> data
I0116 14:35:35.704764 16169 net.cpp:150] Setting up data
I0116 14:35:35.704773 16169 net.cpp:157] Top shape: 4 12 360 480 (8294400)
I0116 14:35:35.704777 16169 net.cpp:165] Memory required for data: 74649600
I0116 14:35:35.704779 16169 layer_factory.hpp:77] Creating layer multiconv1_1
I0116 14:35:35.704790 16169 net.cpp:100] Creating Layer multiconv1_1
I0116 14:35:35.704815 16169 net.cpp:434] multiconv1_1 <- data
I0116 14:35:35.704823 16169 net.cpp:408] multiconv1_1 -> conv1_1
I0116 14:35:35.706318 16169 net.cpp:150] Setting up multiconv1_1
I0116 14:35:35.706332 16169 net.cpp:157] Top shape: 4 64 360 480 (44236800)
I0116 14:35:35.706337 16169 net.cpp:165] Memory required for data: 251596800
I0116 14:35:35.706349 16169 layer_factory.hpp:77] Creating layer conv1_1_bn
I0116 14:35:35.706358 16169 net.cpp:100] Creating Layer conv1_1_bn
I0116 14:35:35.706363 16169 net.cpp:434] conv1_1_bn <- conv1_1
I0116 14:35:35.706368 16169 net.cpp:395] conv1_1_bn -> conv1_1 (in-place)
I0116 14:35:35.708323 16169 net.cpp:150] Setting up conv1_1_bn
I0116 14:35:35.708343 16169 net.cpp:157] Top shape: 4 64 360 480 (44236800)
I0116 14:35:35.708348 16169 net.cpp:165] Memory required for data: 428544000
I0116 14:35:35.708359 16169 layer_factory.hpp:77] Creating layer relu1_1
I0116 14:35:35.708384 16169 net.cpp:100] Creating Layer relu1_1
I0116 14:35:35.708389 16169 net.cpp:434] relu1_1 <- conv1_1
I0116 14:35:35.708395 16169 net.cpp:395] relu1_1 -> conv1_1 (in-place)
I0116 14:35:35.708403 16169 net.cpp:150] Setting up relu1_1
I0116 14:35:35.708410 16169 net.cpp:157] Top shape: 4 64 360 480 (44236800)
I0116 14:35:35.708415 16169 net.cpp:165] Memory required for data: 605491200
I0116 14:35:35.708418 16169 layer_factory.hpp:77] Creating layer conv1_2
I0116 14:35:35.708428 16169 net.cpp:100] Creating Layer conv1_2
I0116 14:35:35.708432 16169 net.cpp:434] conv1_2 <- conv1_1
I0116 14:35:35.708437 16169 net.cpp:408] conv1_2 -> conv1_2
I0116 14:35:35.710184 16169 net.cpp:150] Setting up conv1_2
I0116 14:35:35.710199 16169 net.cpp:157] Top shape: 4 64 360 480 (44236800)
I0116 14:35:35.710204 16169 net.cpp:165] Memory required for data: 782438400
I0116 14:35:35.710216 16169 layer_factory.hpp:77] Creating layer conv1_2_bn
I0116 14:35:35.710224 16169 net.cpp:100] Creating Layer conv1_2_bn
I0116 14:35:35.710229 16169 net.cpp:434] conv1_2_bn <- conv1_2
I0116 14:35:35.710235 16169 net.cpp:395] conv1_2_bn -> conv1_2 (in-place)
I0116 14:35:35.712183 16169 net.cpp:150] Setting up conv1_2_bn
I0116 14:35:35.712203 16169 net.cpp:157] Top shape: 4 64 360 480 (44236800)
I0116 14:35:35.712219 16169 net.cpp:165] Memory required for data: 959385600
I0116 14:35:35.712241 16169 layer_factory.hpp:77] Creating layer relu1_2
I0116 14:35:35.712254 16169 net.cpp:100] Creating Layer relu1_2
I0116 14:35:35.712260 16169 net.cpp:434] relu1_2 <- conv1_2
I0116 14:35:35.712265 16169 net.cpp:395] relu1_2 -> conv1_2 (in-place)
I0116 14:35:35.712275 16169 net.cpp:150] Setting up relu1_2
I0116 14:35:35.712280 16169 net.cpp:157] Top shape: 4 64 360 480 (44236800)
I0116 14:35:35.712285 16169 net.cpp:165] Memory required for data: 1136332800
I0116 14:35:35.712288 16169 layer_factory.hpp:77] Creating layer pool1
I0116 14:35:35.712298 16169 net.cpp:100] Creating Layer pool1
I0116 14:35:35.712302 16169 net.cpp:434] pool1 <- conv1_2
I0116 14:35:35.712307 16169 net.cpp:408] pool1 -> pool1
I0116 14:35:35.712314 16169 net.cpp:408] pool1 -> pool1_mask
I0116 14:35:35.712370 16169 net.cpp:150] Setting up pool1
I0116 14:35:35.712376 16169 net.cpp:157] Top shape: 4 64 180 240 (11059200)
I0116 14:35:35.712380 16169 net.cpp:157] Top shape: 4 64 180 240 (11059200)
I0116 14:35:35.712383 16169 net.cpp:165] Memory required for data: 1224806400
I0116 14:35:35.712386 16169 layer_factory.hpp:77] Creating layer conv2_1
I0116 14:35:35.712395 16169 net.cpp:100] Creating Layer conv2_1
I0116 14:35:35.712399 16169 net.cpp:434] conv2_1 <- pool1
I0116 14:35:35.712404 16169 net.cpp:408] conv2_1 -> conv2_1
I0116 14:35:35.715126 16169 net.cpp:150] Setting up conv2_1
I0116 14:35:35.715139 16169 net.cpp:157] Top shape: 4 128 180 240 (22118400)
I0116 14:35:35.715144 16169 net.cpp:165] Memory required for data: 1313280000
I0116 14:35:35.715157 16169 layer_factory.hpp:77] Creating layer conv2_1_bn
I0116 14:35:35.715165 16169 net.cpp:100] Creating Layer conv2_1_bn
I0116 14:35:35.715170 16169 net.cpp:434] conv2_1_bn <- conv2_1
I0116 14:35:35.715178 16169 net.cpp:395] conv2_1_bn -> conv2_1 (in-place)
I0116 14:35:35.715627 16169 net.cpp:150] Setting up conv2_1_bn
I0116 14:35:35.715641 16169 net.cpp:157] Top shape: 4 128 180 240 (22118400)
I0116 14:35:35.715644 16169 net.cpp:165] Memory required for data: 1401753600
I0116 14:35:35.715651 16169 layer_factory.hpp:77] Creating layer relu2_1
I0116 14:35:35.715658 16169 net.cpp:100] Creating Layer relu2_1
I0116 14:35:35.715663 16169 net.cpp:434] relu2_1 <- conv2_1
I0116 14:35:35.715669 16169 net.cpp:395] relu2_1 -> conv2_1 (in-place)
I0116 14:35:35.715675 16169 net.cpp:150] Setting up relu2_1
I0116 14:35:35.715682 16169 net.cpp:157] Top shape: 4 128 180 240 (22118400)
I0116 14:35:35.715685 16169 net.cpp:165] Memory required for data: 1490227200
I0116 14:35:35.715689 16169 layer_factory.hpp:77] Creating layer conv2_2
I0116 14:35:35.715698 16169 net.cpp:100] Creating Layer conv2_2
I0116 14:35:35.715703 16169 net.cpp:434] conv2_2 <- conv2_1
I0116 14:35:35.715713 16169 net.cpp:408] conv2_2 -> conv2_2
I0116 14:35:35.720909 16169 net.cpp:150] Setting up conv2_2
I0116 14:35:35.720932 16169 net.cpp:157] Top shape: 4 128 180 240 (22118400)
I0116 14:35:35.720950 16169 net.cpp:165] Memory required for data: 1578700800
I0116 14:35:35.720958 16169 layer_factory.hpp:77] Creating layer conv2_2_bn
I0116 14:35:35.720970 16169 net.cpp:100] Creating Layer conv2_2_bn
I0116 14:35:35.720976 16169 net.cpp:434] conv2_2_bn <- conv2_2
I0116 14:35:35.720984 16169 net.cpp:395] conv2_2_bn -> conv2_2 (in-place)
I0116 14:35:35.721393 16169 net.cpp:150] Setting up conv2_2_bn
I0116 14:35:35.721402 16169 net.cpp:157] Top shape: 4 128 180 240 (22118400)
I0116 14:35:35.721406 16169 net.cpp:165] Memory required for data: 1667174400
I0116 14:35:35.721413 16169 layer_factory.hpp:77] Creating layer relu2_2
I0116 14:35:35.721421 16169 net.cpp:100] Creating Layer relu2_2
I0116 14:35:35.721446 16169 net.cpp:434] relu2_2 <- conv2_2
I0116 14:35:35.721451 16169 net.cpp:395] relu2_2 -> conv2_2 (in-place)
I0116 14:35:35.721458 16169 net.cpp:150] Setting up relu2_2
I0116 14:35:35.721464 16169 net.cpp:157] Top shape: 4 128 180 240 (22118400)
I0116 14:35:35.721468 16169 net.cpp:165] Memory required for data: 1755648000
I0116 14:35:35.721472 16169 layer_factory.hpp:77] Creating layer pool2
I0116 14:35:35.721478 16169 net.cpp:100] Creating Layer pool2
I0116 14:35:35.721482 16169 net.cpp:434] pool2 <- conv2_2
I0116 14:35:35.721493 16169 net.cpp:408] pool2 -> pool2
I0116 14:35:35.721499 16169 net.cpp:408] pool2 -> pool2_mask
I0116 14:35:35.721557 16169 net.cpp:150] Setting up pool2
I0116 14:35:35.721565 16169 net.cpp:157] Top shape: 4 128 90 120 (5529600)
I0116 14:35:35.721570 16169 net.cpp:157] Top shape: 4 128 90 120 (5529600)
I0116 14:35:35.721577 16169 net.cpp:165] Memory required for data: 1799884800
I0116 14:35:35.721581 16169 layer_factory.hpp:77] Creating layer conv3_1
I0116 14:35:35.721590 16169 net.cpp:100] Creating Layer conv3_1
I0116 14:35:35.721595 16169 net.cpp:434] conv3_1 <- pool2
I0116 14:35:35.721601 16169 net.cpp:408] conv3_1 -> conv3_1
I0116 14:35:35.732733 16169 net.cpp:150] Setting up conv3_1
I0116 14:35:35.732772 16169 net.cpp:157] Top shape: 4 256 90 120 (11059200)
I0116 14:35:35.732779 16169 net.cpp:165] Memory required for data: 1844121600
I0116 14:35:35.732794 16169 layer_factory.hpp:77] Creating layer conv3_1_bn
I0116 14:35:35.732805 16169 net.cpp:100] Creating Layer conv3_1_bn
I0116 14:35:35.732810 16169 net.cpp:434] conv3_1_bn <- conv3_1
I0116 14:35:35.732817 16169 net.cpp:395] conv3_1_bn -> conv3_1 (in-place)
I0116 14:35:35.733196 16169 net.cpp:150] Setting up conv3_1_bn
I0116 14:35:35.733204 16169 net.cpp:157] Top shape: 4 256 90 120 (11059200)
I0116 14:35:35.733208 16169 net.cpp:165] Memory required for data: 1888358400
I0116 14:35:35.733214 16169 layer_factory.hpp:77] Creating layer relu3_1
I0116 14:35:35.733222 16169 net.cpp:100] Creating Layer relu3_1
I0116 14:35:35.733227 16169 net.cpp:434] relu3_1 <- conv3_1
I0116 14:35:35.733232 16169 net.cpp:395] relu3_1 -> conv3_1 (in-place)
I0116 14:35:35.733239 16169 net.cpp:150] Setting up relu3_1
I0116 14:35:35.733243 16169 net.cpp:157] Top shape: 4 256 90 120 (11059200)
I0116 14:35:35.733273 16169 net.cpp:165] Memory required for data: 1932595200
I0116 14:35:35.733278 16169 layer_factory.hpp:77] Creating layer conv3_2
I0116 14:35:35.733286 16169 net.cpp:100] Creating Layer conv3_2
I0116 14:35:35.733290 16169 net.cpp:434] conv3_2 <- conv3_1
I0116 14:35:35.733296 16169 net.cpp:408] conv3_2 -> conv3_2
I0116 14:35:35.746562 16169 net.cpp:150] Setting up conv3_2
I0116 14:35:35.746582 16169 net.cpp:157] Top shape: 4 256 90 120 (11059200)
I0116 14:35:35.746585 16169 net.cpp:165] Memory required for data: 1976832000
I0116 14:35:35.746592 16169 layer_factory.hpp:77] Creating layer conv3_2_bn
I0116 14:35:35.746600 16169 net.cpp:100] Creating Layer conv3_2_bn
I0116 14:35:35.746604 16169 net.cpp:434] conv3_2_bn <- conv3_2
I0116 14:35:35.746609 16169 net.cpp:395] conv3_2_bn -> conv3_2 (in-place)
I0116 14:35:35.746889 16169 net.cpp:150] Setting up conv3_2_bn
I0116 14:35:35.746896 16169 net.cpp:157] Top shape: 4 256 90 120 (11059200)
I0116 14:35:35.746898 16169 net.cpp:165] Memory required for data: 2021068800
I0116 14:35:35.746902 16169 layer_factory.hpp:77] Creating layer relu3_2
I0116 14:35:35.746906 16169 net.cpp:100] Creating Layer relu3_2
I0116 14:35:35.746909 16169 net.cpp:434] relu3_2 <- conv3_2
I0116 14:35:35.746912 16169 net.cpp:395] relu3_2 -> conv3_2 (in-place)
I0116 14:35:35.746917 16169 net.cpp:150] Setting up relu3_2
I0116 14:35:35.746919 16169 net.cpp:157] Top shape: 4 256 90 120 (11059200)
I0116 14:35:35.746922 16169 net.cpp:165] Memory required for data: 2065305600
I0116 14:35:35.746923 16169 layer_factory.hpp:77] Creating layer conv3_3
I0116 14:35:35.746929 16169 net.cpp:100] Creating Layer conv3_3
I0116 14:35:35.746932 16169 net.cpp:434] conv3_3 <- conv3_2
I0116 14:35:35.746937 16169 net.cpp:408] conv3_3 -> conv3_3
I0116 14:35:35.759961 16169 net.cpp:150] Setting up conv3_3
I0116 14:35:35.759984 16169 net.cpp:157] Top shape: 4 256 90 120 (11059200)
I0116 14:35:35.759987 16169 net.cpp:165] Memory required for data: 2109542400
I0116 14:35:35.759994 16169 layer_factory.hpp:77] Creating layer conv3_3_bn
I0116 14:35:35.760002 16169 net.cpp:100] Creating Layer conv3_3_bn
I0116 14:35:35.760006 16169 net.cpp:434] conv3_3_bn <- conv3_3
I0116 14:35:35.760011 16169 net.cpp:395] conv3_3_bn -> conv3_3 (in-place)
I0116 14:35:35.760298 16169 net.cpp:150] Setting up conv3_3_bn
I0116 14:35:35.760303 16169 net.cpp:157] Top shape: 4 256 90 120 (11059200)
I0116 14:35:35.760308 16169 net.cpp:165] Memory required for data: 2153779200
I0116 14:35:35.760313 16169 layer_factory.hpp:77] Creating layer relu3_3
I0116 14:35:35.760321 16169 net.cpp:100] Creating Layer relu3_3
I0116 14:35:35.760325 16169 net.cpp:434] relu3_3 <- conv3_3
I0116 14:35:35.760329 16169 net.cpp:395] relu3_3 -> conv3_3 (in-place)
I0116 14:35:35.760334 16169 net.cpp:150] Setting up relu3_3
I0116 14:35:35.760337 16169 net.cpp:157] Top shape: 4 256 90 120 (11059200)
I0116 14:35:35.760340 16169 net.cpp:165] Memory required for data: 2198016000
I0116 14:35:35.760344 16169 layer_factory.hpp:77] Creating layer pool3
I0116 14:35:35.760349 16169 net.cpp:100] Creating Layer pool3
I0116 14:35:35.760351 16169 net.cpp:434] pool3 <- conv3_3
I0116 14:35:35.760355 16169 net.cpp:408] pool3 -> pool3
I0116 14:35:35.760361 16169 net.cpp:408] pool3 -> pool3_mask
I0116 14:35:35.760402 16169 net.cpp:150] Setting up pool3
I0116 14:35:35.760407 16169 net.cpp:157] Top shape: 4 256 45 60 (2764800)
I0116 14:35:35.760411 16169 net.cpp:157] Top shape: 4 256 45 60 (2764800)
I0116 14:35:35.760413 16169 net.cpp:165] Memory required for data: 2220134400
I0116 14:35:35.760416 16169 layer_factory.hpp:77] Creating layer conv4_1
I0116 14:35:35.760423 16169 net.cpp:100] Creating Layer conv4_1
I0116 14:35:35.760426 16169 net.cpp:434] conv4_1 <- pool3
I0116 14:35:35.760432 16169 net.cpp:408] conv4_1 -> conv4_1
I0116 14:35:35.786954 16169 net.cpp:150] Setting up conv4_1
I0116 14:35:35.786979 16169 net.cpp:157] Top shape: 4 512 45 60 (5529600)
I0116 14:35:35.786985 16169 net.cpp:165] Memory required for data: 2242252800
I0116 14:35:35.786995 16169 layer_factory.hpp:77] Creating layer conv4_1_bn
I0116 14:35:35.787026 16169 net.cpp:100] Creating Layer conv4_1_bn
I0116 14:35:35.787031 16169 net.cpp:434] conv4_1_bn <- conv4_1
I0116 14:35:35.787039 16169 net.cpp:395] conv4_1_bn -> conv4_1 (in-place)
I0116 14:35:35.787386 16169 net.cpp:150] Setting up conv4_1_bn
I0116 14:35:35.787395 16169 net.cpp:157] Top shape: 4 512 45 60 (5529600)
I0116 14:35:35.787400 16169 net.cpp:165] Memory required for data: 2264371200
I0116 14:35:35.787406 16169 layer_factory.hpp:77] Creating layer relu4_1
I0116 14:35:35.787413 16169 net.cpp:100] Creating Layer relu4_1
I0116 14:35:35.787417 16169 net.cpp:434] relu4_1 <- conv4_1
I0116 14:35:35.787421 16169 net.cpp:395] relu4_1 -> conv4_1 (in-place)
I0116 14:35:35.787426 16169 net.cpp:150] Setting up relu4_1
I0116 14:35:35.787431 16169 net.cpp:157] Top shape: 4 512 45 60 (5529600)
I0116 14:35:35.787436 16169 net.cpp:165] Memory required for data: 2286489600
I0116 14:35:35.787441 16169 layer_factory.hpp:77] Creating layer conv4_2
I0116 14:35:35.787449 16169 net.cpp:100] Creating Layer conv4_2
I0116 14:35:35.787453 16169 net.cpp:434] conv4_2 <- conv4_1
I0116 14:35:35.787461 16169 net.cpp:408] conv4_2 -> conv4_2
I0116 14:35:35.840289 16169 net.cpp:150] Setting up conv4_2
I0116 14:35:35.840312 16169 net.cpp:157] Top shape: 4 512 45 60 (5529600)
I0116 14:35:35.840315 16169 net.cpp:165] Memory required for data: 2308608000
I0116 14:35:35.840327 16169 layer_factory.hpp:77] Creating layer conv4_2_bn
I0116 14:35:35.840335 16169 net.cpp:100] Creating Layer conv4_2_bn
I0116 14:35:35.840339 16169 net.cpp:434] conv4_2_bn <- conv4_2
I0116 14:35:35.840345 16169 net.cpp:395] conv4_2_bn -> conv4_2 (in-place)
I0116 14:35:35.840622 16169 net.cpp:150] Setting up conv4_2_bn
I0116 14:35:35.840628 16169 net.cpp:157] Top shape: 4 512 45 60 (5529600)
I0116 14:35:35.840631 16169 net.cpp:165] Memory required for data: 2330726400
I0116 14:35:35.840636 16169 layer_factory.hpp:77] Creating layer relu4_2
I0116 14:35:35.840641 16169 net.cpp:100] Creating Layer relu4_2
I0116 14:35:35.840644 16169 net.cpp:434] relu4_2 <- conv4_2
I0116 14:35:35.840647 16169 net.cpp:395] relu4_2 -> conv4_2 (in-place)
I0116 14:35:35.840652 16169 net.cpp:150] Setting up relu4_2
I0116 14:35:35.840656 16169 net.cpp:157] Top shape: 4 512 45 60 (5529600)
I0116 14:35:35.840659 16169 net.cpp:165] Memory required for data: 2352844800
I0116 14:35:35.840662 16169 layer_factory.hpp:77] Creating layer conv4_3
I0116 14:35:35.840669 16169 net.cpp:100] Creating Layer conv4_3
I0116 14:35:35.840672 16169 net.cpp:434] conv4_3 <- conv4_2
I0116 14:35:35.840677 16169 net.cpp:408] conv4_3 -> conv4_3
I0116 14:35:35.894037 16169 net.cpp:150] Setting up conv4_3
I0116 14:35:35.894073 16169 net.cpp:157] Top shape: 4 512 45 60 (5529600)
I0116 14:35:35.894076 16169 net.cpp:165] Memory required for data: 2374963200
I0116 14:35:35.894096 16169 layer_factory.hpp:77] Creating layer conv4_3_bn
I0116 14:35:35.894105 16169 net.cpp:100] Creating Layer conv4_3_bn
I0116 14:35:35.894110 16169 net.cpp:434] conv4_3_bn <- conv4_3
I0116 14:35:35.894117 16169 net.cpp:395] conv4_3_bn -> conv4_3 (in-place)
I0116 14:35:35.894413 16169 net.cpp:150] Setting up conv4_3_bn
I0116 14:35:35.894419 16169 net.cpp:157] Top shape: 4 512 45 60 (5529600)
I0116 14:35:35.894436 16169 net.cpp:165] Memory required for data: 2397081600
I0116 14:35:35.894440 16169 layer_factory.hpp:77] Creating layer relu4_3
I0116 14:35:35.894446 16169 net.cpp:100] Creating Layer relu4_3
I0116 14:35:35.894449 16169 net.cpp:434] relu4_3 <- conv4_3
I0116 14:35:35.894455 16169 net.cpp:395] relu4_3 -> conv4_3 (in-place)
I0116 14:35:35.894459 16169 net.cpp:150] Setting up relu4_3
I0116 14:35:35.894464 16169 net.cpp:157] Top shape: 4 512 45 60 (5529600)
I0116 14:35:35.894466 16169 net.cpp:165] Memory required for data: 2419200000
I0116 14:35:35.894469 16169 layer_factory.hpp:77] Creating layer pool4
I0116 14:35:35.894474 16169 net.cpp:100] Creating Layer pool4
I0116 14:35:35.894477 16169 net.cpp:434] pool4 <- conv4_3
I0116 14:35:35.894482 16169 net.cpp:408] pool4 -> pool4
I0116 14:35:35.894487 16169 net.cpp:408] pool4 -> pool4_mask
I0116 14:35:35.894551 16169 net.cpp:150] Setting up pool4
I0116 14:35:35.894556 16169 net.cpp:157] Top shape: 4 512 23 30 (1413120)
I0116 14:35:35.894560 16169 net.cpp:157] Top shape: 4 512 23 30 (1413120)
I0116 14:35:35.894563 16169 net.cpp:165] Memory required for data: 2430504960
I0116 14:35:35.894567 16169 layer_factory.hpp:77] Creating layer conv5_1
I0116 14:35:35.894573 16169 net.cpp:100] Creating Layer conv5_1
I0116 14:35:35.894577 16169 net.cpp:434] conv5_1 <- pool4
I0116 14:35:35.894582 16169 net.cpp:408] conv5_1 -> conv5_1
I0116 14:35:35.947713 16169 net.cpp:150] Setting up conv5_1
I0116 14:35:35.947741 16169 net.cpp:157] Top shape: 4 512 23 30 (1413120)
I0116 14:35:35.947744 16169 net.cpp:165] Memory required for data: 2436157440
I0116 14:35:35.947753 16169 layer_factory.hpp:77] Creating layer conv5_1_bn
I0116 14:35:35.947765 16169 net.cpp:100] Creating Layer conv5_1_bn
I0116 14:35:35.947770 16169 net.cpp:434] conv5_1_bn <- conv5_1
I0116 14:35:35.947777 16169 net.cpp:395] conv5_1_bn -> conv5_1 (in-place)
I0116 14:35:35.948067 16169 net.cpp:150] Setting up conv5_1_bn
I0116 14:35:35.948073 16169 net.cpp:157] Top shape: 4 512 23 30 (1413120)
I0116 14:35:35.948076 16169 net.cpp:165] Memory required for data: 2441809920
I0116 14:35:35.948081 16169 layer_factory.hpp:77] Creating layer relu5_1
I0116 14:35:35.948087 16169 net.cpp:100] Creating Layer relu5_1
I0116 14:35:35.948091 16169 net.cpp:434] relu5_1 <- conv5_1
I0116 14:35:35.948094 16169 net.cpp:395] relu5_1 -> conv5_1 (in-place)
I0116 14:35:35.948098 16169 net.cpp:150] Setting up relu5_1
I0116 14:35:35.948102 16169 net.cpp:157] Top shape: 4 512 23 30 (1413120)
I0116 14:35:35.948106 16169 net.cpp:165] Memory required for data: 2447462400
I0116 14:35:35.948107 16169 layer_factory.hpp:77] Creating layer conv5_2
I0116 14:35:35.948115 16169 net.cpp:100] Creating Layer conv5_2
I0116 14:35:35.948118 16169 net.cpp:434] conv5_2 <- conv5_1
I0116 14:35:35.948123 16169 net.cpp:408] conv5_2 -> conv5_2
I0116 14:35:35.999897 16169 net.cpp:150] Setting up conv5_2
I0116 14:35:35.999936 16169 net.cpp:157] Top shape: 4 512 23 30 (1413120)
I0116 14:35:35.999940 16169 net.cpp:165] Memory required for data: 2453114880
I0116 14:35:35.999969 16169 layer_factory.hpp:77] Creating layer conv5_2_bn
I0116 14:35:35.999982 16169 net.cpp:100] Creating Layer conv5_2_bn
I0116 14:35:35.999987 16169 net.cpp:434] conv5_2_bn <- conv5_2
I0116 14:35:35.999994 16169 net.cpp:395] conv5_2_bn -> conv5_2 (in-place)
I0116 14:35:36.000296 16169 net.cpp:150] Setting up conv5_2_bn
I0116 14:35:36.000303 16169 net.cpp:157] Top shape: 4 512 23 30 (1413120)
I0116 14:35:36.000319 16169 net.cpp:165] Memory required for data: 2458767360
I0116 14:35:36.000324 16169 layer_factory.hpp:77] Creating layer relu5_2
I0116 14:35:36.000330 16169 net.cpp:100] Creating Layer relu5_2
I0116 14:35:36.000334 16169 net.cpp:434] relu5_2 <- conv5_2
I0116 14:35:36.000337 16169 net.cpp:395] relu5_2 -> conv5_2 (in-place)
I0116 14:35:36.000342 16169 net.cpp:150] Setting up relu5_2
I0116 14:35:36.000345 16169 net.cpp:157] Top shape: 4 512 23 30 (1413120)
I0116 14:35:36.000349 16169 net.cpp:165] Memory required for data: 2464419840
I0116 14:35:36.000351 16169 layer_factory.hpp:77] Creating layer conv5_3
I0116 14:35:36.000360 16169 net.cpp:100] Creating Layer conv5_3
I0116 14:35:36.000362 16169 net.cpp:434] conv5_3 <- conv5_2
I0116 14:35:36.000367 16169 net.cpp:408] conv5_3 -> conv5_3
I0116 14:35:36.052886 16169 net.cpp:150] Setting up conv5_3
I0116 14:35:36.052919 16169 net.cpp:157] Top shape: 4 512 23 30 (1413120)
I0116 14:35:36.052924 16169 net.cpp:165] Memory required for data: 2470072320
I0116 14:35:36.052932 16169 layer_factory.hpp:77] Creating layer conv5_3_bn
I0116 14:35:36.052942 16169 net.cpp:100] Creating Layer conv5_3_bn
I0116 14:35:36.052947 16169 net.cpp:434] conv5_3_bn <- conv5_3
I0116 14:35:36.052965 16169 net.cpp:395] conv5_3_bn -> conv5_3 (in-place)
I0116 14:35:36.053267 16169 net.cpp:150] Setting up conv5_3_bn
I0116 14:35:36.053272 16169 net.cpp:157] Top shape: 4 512 23 30 (1413120)
I0116 14:35:36.053292 16169 net.cpp:165] Memory required for data: 2475724800
I0116 14:35:36.053297 16169 layer_factory.hpp:77] Creating layer relu5_3
I0116 14:35:36.053303 16169 net.cpp:100] Creating Layer relu5_3
I0116 14:35:36.053306 16169 net.cpp:434] relu5_3 <- conv5_3
I0116 14:35:36.053310 16169 net.cpp:395] relu5_3 -> conv5_3 (in-place)
I0116 14:35:36.053315 16169 net.cpp:150] Setting up relu5_3
I0116 14:35:36.053319 16169 net.cpp:157] Top shape: 4 512 23 30 (1413120)
I0116 14:35:36.053323 16169 net.cpp:165] Memory required for data: 2481377280
I0116 14:35:36.053325 16169 layer_factory.hpp:77] Creating layer pool5
I0116 14:35:36.053331 16169 net.cpp:100] Creating Layer pool5
I0116 14:35:36.053334 16169 net.cpp:434] pool5 <- conv5_3
I0116 14:35:36.053339 16169 net.cpp:408] pool5 -> pool5
I0116 14:35:36.053344 16169 net.cpp:408] pool5 -> pool5_mask
I0116 14:35:36.053393 16169 net.cpp:150] Setting up pool5
I0116 14:35:36.053400 16169 net.cpp:157] Top shape: 4 512 12 15 (368640)
I0116 14:35:36.053405 16169 net.cpp:157] Top shape: 4 512 12 15 (368640)
I0116 14:35:36.053408 16169 net.cpp:165] Memory required for data: 2484326400
I0116 14:35:36.053411 16169 layer_factory.hpp:77] Creating layer upsample5
I0116 14:35:36.053416 16169 net.cpp:100] Creating Layer upsample5
I0116 14:35:36.053419 16169 net.cpp:434] upsample5 <- pool5
I0116 14:35:36.053427 16169 net.cpp:434] upsample5 <- pool5_mask
I0116 14:35:36.053431 16169 net.cpp:408] upsample5 -> pool5_D
I0116 14:35:36.053457 16169 net.cpp:150] Setting up upsample5
I0116 14:35:36.053462 16169 net.cpp:157] Top shape: 4 512 23 30 (1413120)
I0116 14:35:36.053465 16169 net.cpp:165] Memory required for data: 2489978880
I0116 14:35:36.053469 16169 layer_factory.hpp:77] Creating layer conv5_3_D
I0116 14:35:36.053488 16169 net.cpp:100] Creating Layer conv5_3_D
I0116 14:35:36.053493 16169 net.cpp:434] conv5_3_D <- pool5_D
I0116 14:35:36.053499 16169 net.cpp:408] conv5_3_D -> conv5_3_D
I0116 14:35:36.105381 16169 net.cpp:150] Setting up conv5_3_D
I0116 14:35:36.105401 16169 net.cpp:157] Top shape: 4 512 23 30 (1413120)
I0116 14:35:36.105443 16169 net.cpp:165] Memory required for data: 2495631360
I0116 14:35:36.105453 16169 layer_factory.hpp:77] Creating layer conv5_3_D_bn
I0116 14:35:36.105463 16169 net.cpp:100] Creating Layer conv5_3_D_bn
I0116 14:35:36.105468 16169 net.cpp:434] conv5_3_D_bn <- conv5_3_D
I0116 14:35:36.105489 16169 net.cpp:395] conv5_3_D_bn -> conv5_3_D (in-place)
I0116 14:35:36.105852 16169 net.cpp:150] Setting up conv5_3_D_bn
I0116 14:35:36.105859 16169 net.cpp:157] Top shape: 4 512 23 30 (1413120)
I0116 14:35:36.105877 16169 net.cpp:165] Memory required for data: 2501283840
I0116 14:35:36.105883 16169 layer_factory.hpp:77] Creating layer relu5_3_D
I0116 14:35:36.105890 16169 net.cpp:100] Creating Layer relu5_3_D
I0116 14:35:36.105892 16169 net.cpp:434] relu5_3_D <- conv5_3_D
I0116 14:35:36.105897 16169 net.cpp:395] relu5_3_D -> conv5_3_D (in-place)
I0116 14:35:36.105903 16169 net.cpp:150] Setting up relu5_3_D
I0116 14:35:36.105908 16169 net.cpp:157] Top shape: 4 512 23 30 (1413120)
I0116 14:35:36.105911 16169 net.cpp:165] Memory required for data: 2506936320
I0116 14:35:36.105914 16169 layer_factory.hpp:77] Creating layer conv5_2_D
I0116 14:35:36.105924 16169 net.cpp:100] Creating Layer conv5_2_D
I0116 14:35:36.105927 16169 net.cpp:434] conv5_2_D <- conv5_3_D
I0116 14:35:36.105934 16169 net.cpp:408] conv5_2_D -> conv5_2_D
I0116 14:35:36.158843 16169 net.cpp:150] Setting up conv5_2_D
I0116 14:35:36.158870 16169 net.cpp:157] Top shape: 4 512 23 30 (1413120)
I0116 14:35:36.158888 16169 net.cpp:165] Memory required for data: 2512588800
I0116 14:35:36.158897 16169 layer_factory.hpp:77] Creating layer conv5_2_D_bn
I0116 14:35:36.158910 16169 net.cpp:100] Creating Layer conv5_2_D_bn
I0116 14:35:36.158917 16169 net.cpp:434] conv5_2_D_bn <- conv5_2_D
I0116 14:35:36.158926 16169 net.cpp:395] conv5_2_D_bn -> conv5_2_D (in-place)
I0116 14:35:36.159308 16169 net.cpp:150] Setting up conv5_2_D_bn
I0116 14:35:36.159318 16169 net.cpp:157] Top shape: 4 512 23 30 (1413120)
I0116 14:35:36.159358 16169 net.cpp:165] Memory required for data: 2518241280
I0116 14:35:36.159368 16169 layer_factory.hpp:77] Creating layer relu5_2_D
I0116 14:35:36.159376 16169 net.cpp:100] Creating Layer relu5_2_D
I0116 14:35:36.159381 16169 net.cpp:434] relu5_2_D <- conv5_2_D
I0116 14:35:36.159387 16169 net.cpp:395] relu5_2_D -> conv5_2_D (in-place)
I0116 14:35:36.159395 16169 net.cpp:150] Setting up relu5_2_D
I0116 14:35:36.159401 16169 net.cpp:157] Top shape: 4 512 23 30 (1413120)
I0116 14:35:36.159405 16169 net.cpp:165] Memory required for data: 2523893760
I0116 14:35:36.159409 16169 layer_factory.hpp:77] Creating layer conv5_1_D
I0116 14:35:36.159420 16169 net.cpp:100] Creating Layer conv5_1_D
I0116 14:35:36.159425 16169 net.cpp:434] conv5_1_D <- conv5_2_D
I0116 14:35:36.159432 16169 net.cpp:408] conv5_1_D -> conv5_1_D
I0116 14:35:36.211153 16169 net.cpp:150] Setting up conv5_1_D
I0116 14:35:36.211186 16169 net.cpp:157] Top shape: 4 512 23 30 (1413120)
I0116 14:35:36.211190 16169 net.cpp:165] Memory required for data: 2529546240
I0116 14:35:36.211211 16169 layer_factory.hpp:77] Creating layer conv5_1_D_bn
I0116 14:35:36.211221 16169 net.cpp:100] Creating Layer conv5_1_D_bn
I0116 14:35:36.211226 16169 net.cpp:434] conv5_1_D_bn <- conv5_1_D
I0116 14:35:36.211231 16169 net.cpp:395] conv5_1_D_bn -> conv5_1_D (in-place)
I0116 14:35:36.211563 16169 net.cpp:150] Setting up conv5_1_D_bn
I0116 14:35:36.211570 16169 net.cpp:157] Top shape: 4 512 23 30 (1413120)
I0116 14:35:36.211572 16169 net.cpp:165] Memory required for data: 2535198720
I0116 14:35:36.211577 16169 layer_factory.hpp:77] Creating layer relu5_1_D
I0116 14:35:36.211596 16169 net.cpp:100] Creating Layer relu5_1_D
I0116 14:35:36.211598 16169 net.cpp:434] relu5_1_D <- conv5_1_D
I0116 14:35:36.211601 16169 net.cpp:395] relu5_1_D -> conv5_1_D (in-place)
I0116 14:35:36.211606 16169 net.cpp:150] Setting up relu5_1_D
I0116 14:35:36.211611 16169 net.cpp:157] Top shape: 4 512 23 30 (1413120)
I0116 14:35:36.211612 16169 net.cpp:165] Memory required for data: 2540851200
I0116 14:35:36.211616 16169 layer_factory.hpp:77] Creating layer upsample4
I0116 14:35:36.211627 16169 net.cpp:100] Creating Layer upsample4
I0116 14:35:36.211632 16169 net.cpp:434] upsample4 <- conv5_1_D
I0116 14:35:36.211635 16169 net.cpp:434] upsample4 <- pool4_mask
I0116 14:35:36.211639 16169 net.cpp:408] upsample4 -> pool4_D
I0116 14:35:36.211668 16169 net.cpp:150] Setting up upsample4
I0116 14:35:36.211673 16169 net.cpp:157] Top shape: 4 512 45 60 (5529600)
I0116 14:35:36.211674 16169 net.cpp:165] Memory required for data: 2562969600
I0116 14:35:36.211678 16169 layer_factory.hpp:77] Creating layer conv4_3_D
I0116 14:35:36.211684 16169 net.cpp:100] Creating Layer conv4_3_D
I0116 14:35:36.211688 16169 net.cpp:434] conv4_3_D <- pool4_D
I0116 14:35:36.211695 16169 net.cpp:408] conv4_3_D -> conv4_3_D
I0116 14:35:36.263105 16169 net.cpp:150] Setting up conv4_3_D
I0116 14:35:36.263126 16169 net.cpp:157] Top shape: 4 512 45 60 (5529600)
I0116 14:35:36.263144 16169 net.cpp:165] Memory required for data: 2585088000
I0116 14:35:36.263160 16169 layer_factory.hpp:77] Creating layer conv4_3_D_bn
I0116 14:35:36.263170 16169 net.cpp:100] Creating Layer conv4_3_D_bn
I0116 14:35:36.263175 16169 net.cpp:434] conv4_3_D_bn <- conv4_3_D
I0116 14:35:36.263180 16169 net.cpp:395] conv4_3_D_bn -> conv4_3_D (in-place)
I0116 14:35:36.263478 16169 net.cpp:150] Setting up conv4_3_D_bn
I0116 14:35:36.263485 16169 net.cpp:157] Top shape: 4 512 45 60 (5529600)
I0116 14:35:36.263489 16169 net.cpp:165] Memory required for data: 2607206400
I0116 14:35:36.263494 16169 layer_factory.hpp:77] Creating layer relu4_3_D
I0116 14:35:36.263499 16169 net.cpp:100] Creating Layer relu4_3_D
I0116 14:35:36.263502 16169 net.cpp:434] relu4_3_D <- conv4_3_D
I0116 14:35:36.263506 16169 net.cpp:395] relu4_3_D -> conv4_3_D (in-place)
I0116 14:35:36.263511 16169 net.cpp:150] Setting up relu4_3_D
I0116 14:35:36.263515 16169 net.cpp:157] Top shape: 4 512 45 60 (5529600)
I0116 14:35:36.263519 16169 net.cpp:165] Memory required for data: 2629324800
I0116 14:35:36.263537 16169 layer_factory.hpp:77] Creating layer conv4_2_D
I0116 14:35:36.263545 16169 net.cpp:100] Creating Layer conv4_2_D
I0116 14:35:36.263548 16169 net.cpp:434] conv4_2_D <- conv4_3_D
I0116 14:35:36.263555 16169 net.cpp:408] conv4_2_D -> conv4_2_D
I0116 14:35:36.314671 16169 net.cpp:150] Setting up conv4_2_D
I0116 14:35:36.314704 16169 net.cpp:157] Top shape: 4 512 45 60 (5529600)
I0116 14:35:36.314708 16169 net.cpp:165] Memory required for data: 2651443200
I0116 14:35:36.314728 16169 layer_factory.hpp:77] Creating layer conv4_2_D_bn
I0116 14:35:36.314736 16169 net.cpp:100] Creating Layer conv4_2_D_bn
I0116 14:35:36.314740 16169 net.cpp:434] conv4_2_D_bn <- conv4_2_D
I0116 14:35:36.314748 16169 net.cpp:395] conv4_2_D_bn -> conv4_2_D (in-place)
I0116 14:35:36.315069 16169 net.cpp:150] Setting up conv4_2_D_bn
I0116 14:35:36.315075 16169 net.cpp:157] Top shape: 4 512 45 60 (5529600)
I0116 14:35:36.315078 16169 net.cpp:165] Memory required for data: 2673561600
I0116 14:35:36.315083 16169 layer_factory.hpp:77] Creating layer relu4_2_D
I0116 14:35:36.315088 16169 net.cpp:100] Creating Layer relu4_2_D
I0116 14:35:36.315091 16169 net.cpp:434] relu4_2_D <- conv4_2_D
I0116 14:35:36.315098 16169 net.cpp:395] relu4_2_D -> conv4_2_D (in-place)
I0116 14:35:36.315102 16169 net.cpp:150] Setting up relu4_2_D
I0116 14:35:36.315105 16169 net.cpp:157] Top shape: 4 512 45 60 (5529600)
I0116 14:35:36.315109 16169 net.cpp:165] Memory required for data: 2695680000
I0116 14:35:36.315111 16169 layer_factory.hpp:77] Creating layer conv4_1_D
I0116 14:35:36.315119 16169 net.cpp:100] Creating Layer conv4_1_D
I0116 14:35:36.315124 16169 net.cpp:434] conv4_1_D <- conv4_2_D
I0116 14:35:36.315129 16169 net.cpp:408] conv4_1_D -> conv4_1_D
I0116 14:35:36.341028 16169 net.cpp:150] Setting up conv4_1_D
I0116 14:35:36.341048 16169 net.cpp:157] Top shape: 4 256 45 60 (2764800)
I0116 14:35:36.341065 16169 net.cpp:165] Memory required for data: 2706739200
I0116 14:35:36.341073 16169 layer_factory.hpp:77] Creating layer conv4_1_D_bn
I0116 14:35:36.341084 16169 net.cpp:100] Creating Layer conv4_1_D_bn
I0116 14:35:36.341087 16169 net.cpp:434] conv4_1_D_bn <- conv4_1_D
I0116 14:35:36.341094 16169 net.cpp:395] conv4_1_D_bn -> conv4_1_D (in-place)
I0116 14:35:36.341394 16169 net.cpp:150] Setting up conv4_1_D_bn
I0116 14:35:36.341401 16169 net.cpp:157] Top shape: 4 256 45 60 (2764800)
I0116 14:35:36.341404 16169 net.cpp:165] Memory required for data: 2717798400
I0116 14:35:36.341408 16169 layer_factory.hpp:77] Creating layer relu4_1_D
I0116 14:35:36.341414 16169 net.cpp:100] Creating Layer relu4_1_D
I0116 14:35:36.341418 16169 net.cpp:434] relu4_1_D <- conv4_1_D
I0116 14:35:36.341426 16169 net.cpp:395] relu4_1_D -> conv4_1_D (in-place)
I0116 14:35:36.341444 16169 net.cpp:150] Setting up relu4_1_D
I0116 14:35:36.341449 16169 net.cpp:157] Top shape: 4 256 45 60 (2764800)
I0116 14:35:36.341451 16169 net.cpp:165] Memory required for data: 2728857600
I0116 14:35:36.341454 16169 layer_factory.hpp:77] Creating layer upsample3
I0116 14:35:36.341459 16169 net.cpp:100] Creating Layer upsample3
I0116 14:35:36.341461 16169 net.cpp:434] upsample3 <- conv4_1_D
I0116 14:35:36.341465 16169 net.cpp:434] upsample3 <- pool3_mask
I0116 14:35:36.341470 16169 net.cpp:408] upsample3 -> pool3_D
I0116 14:35:36.341475 16169 upsample_layer.cpp:27] Params 'pad_out_{}_' are deprecated. Please declare upsample heigh
t and width useing the upsample_h, upsample_w parameters.
I0116 14:35:36.341503 16169 net.cpp:150] Setting up upsample3
I0116 14:35:36.341508 16169 net.cpp:157] Top shape: 4 256 90 120 (11059200)
I0116 14:35:36.341511 16169 net.cpp:165] Memory required for data: 2773094400
I0116 14:35:36.341514 16169 layer_factory.hpp:77] Creating layer conv3_3_D
I0116 14:35:36.341521 16169 net.cpp:100] Creating Layer conv3_3_D
I0116 14:35:36.341526 16169 net.cpp:434] conv3_3_D <- pool3_D
I0116 14:35:36.341534 16169 net.cpp:408] conv3_3_D -> conv3_3_D
I0116 14:35:36.355289 16169 net.cpp:150] Setting up conv3_3_D
I0116 14:35:36.355309 16169 net.cpp:157] Top shape: 4 256 90 120 (11059200)
I0116 14:35:36.355329 16169 net.cpp:165] Memory required for data: 2817331200
I0116 14:35:36.355336 16169 layer_factory.hpp:77] Creating layer conv3_3_D_bn
I0116 14:35:36.355343 16169 net.cpp:100] Creating Layer conv3_3_D_bn
I0116 14:35:36.355348 16169 net.cpp:434] conv3_3_D_bn <- conv3_3_D
I0116 14:35:36.355355 16169 net.cpp:395] conv3_3_D_bn -> conv3_3_D (in-place)
I0116 14:35:36.355679 16169 net.cpp:150] Setting up conv3_3_D_bn
I0116 14:35:36.355685 16169 net.cpp:157] Top shape: 4 256 90 120 (11059200)
I0116 14:35:36.355689 16169 net.cpp:165] Memory required for data: 2861568000
I0116 14:35:36.355693 16169 layer_factory.hpp:77] Creating layer relu3_3_D
I0116 14:35:36.355700 16169 net.cpp:100] Creating Layer relu3_3_D
I0116 14:35:36.355702 16169 net.cpp:434] relu3_3_D <- conv3_3_D
I0116 14:35:36.355706 16169 net.cpp:395] relu3_3_D -> conv3_3_D (in-place)
I0116 14:35:36.355711 16169 net.cpp:150] Setting up relu3_3_D
I0116 14:35:36.355715 16169 net.cpp:157] Top shape: 4 256 90 120 (11059200)
I0116 14:35:36.355718 16169 net.cpp:165] Memory required for data: 2905804800
I0116 14:35:36.355721 16169 layer_factory.hpp:77] Creating layer conv3_2_D
I0116 14:35:36.355728 16169 net.cpp:100] Creating Layer conv3_2_D
I0116 14:35:36.355731 16169 net.cpp:434] conv3_2_D <- conv3_3_D
I0116 14:35:36.355736 16169 net.cpp:408] conv3_2_D -> conv3_2_D
I0116 14:35:36.369503 16169 net.cpp:150] Setting up conv3_2_D
I0116 14:35:36.369523 16169 net.cpp:157] Top shape: 4 256 90 120 (11059200)
I0116 14:35:36.369526 16169 net.cpp:165] Memory required for data: 2950041600
I0116 14:35:36.369534 16169 layer_factory.hpp:77] Creating layer conv3_2_D_bn
I0116 14:35:36.369544 16169 net.cpp:100] Creating Layer conv3_2_D_bn
I0116 14:35:36.369549 16169 net.cpp:434] conv3_2_D_bn <- conv3_2_D
I0116 14:35:36.369554 16169 net.cpp:395] conv3_2_D_bn -> conv3_2_D (in-place)
I0116 14:35:36.369863 16169 net.cpp:150] Setting up conv3_2_D_bn
I0116 14:35:36.369868 16169 net.cpp:157] Top shape: 4 256 90 120 (11059200)
I0116 14:35:36.369873 16169 net.cpp:165] Memory required for data: 2994278400
I0116 14:35:36.369876 16169 layer_factory.hpp:77] Creating layer relu3_2_D
I0116 14:35:36.369880 16169 net.cpp:100] Creating Layer relu3_2_D
I0116 14:35:36.369884 16169 net.cpp:434] relu3_2_D <- conv3_2_D
I0116 14:35:36.369887 16169 net.cpp:395] relu3_2_D -> conv3_2_D (in-place)
I0116 14:35:36.369891 16169 net.cpp:150] Setting up relu3_2_D
I0116 14:35:36.369894 16169 net.cpp:157] Top shape: 4 256 90 120 (11059200)
I0116 14:35:36.369896 16169 net.cpp:165] Memory required for data: 3038515200
I0116 14:35:36.369899 16169 layer_factory.hpp:77] Creating layer conv3_1_D
I0116 14:35:36.369905 16169 net.cpp:100] Creating Layer conv3_1_D
I0116 14:35:36.369909 16169 net.cpp:434] conv3_1_D <- conv3_2_D
I0116 14:35:36.369913 16169 net.cpp:408] conv3_1_D -> conv3_1_D
I0116 14:35:36.377785 16169 net.cpp:150] Setting up conv3_1_D
I0116 14:35:36.377805 16169 net.cpp:157] Top shape: 4 128 90 120 (5529600)
I0116 14:35:36.377825 16169 net.cpp:165] Memory required for data: 3060633600
I0116 14:35:36.377831 16169 layer_factory.hpp:77] Creating layer conv3_1_D_bn
I0116 14:35:36.377840 16169 net.cpp:100] Creating Layer conv3_1_D_bn
I0116 14:35:36.377845 16169 net.cpp:434] conv3_1_D_bn <- conv3_1_D
I0116 14:35:36.377851 16169 net.cpp:395] conv3_1_D_bn -> conv3_1_D (in-place)
I0116 14:35:36.378170 16169 net.cpp:150] Setting up conv3_1_D_bn
I0116 14:35:36.378175 16169 net.cpp:157] Top shape: 4 128 90 120 (5529600)
I0116 14:35:36.378191 16169 net.cpp:165] Memory required for data: 3082752000
I0116 14:35:36.378196 16169 layer_factory.hpp:77] Creating layer relu3_1_D
I0116 14:35:36.378201 16169 net.cpp:100] Creating Layer relu3_1_D
I0116 14:35:36.378204 16169 net.cpp:434] relu3_1_D <- conv3_1_D
I0116 14:35:36.378209 16169 net.cpp:395] relu3_1_D -> conv3_1_D (in-place)
I0116 14:35:36.378214 16169 net.cpp:150] Setting up relu3_1_D
I0116 14:35:36.378218 16169 net.cpp:157] Top shape: 4 128 90 120 (5529600)
I0116 14:35:36.378221 16169 net.cpp:165] Memory required for data: 3104870400
I0116 14:35:36.378223 16169 layer_factory.hpp:77] Creating layer upsample2
I0116 14:35:36.378242 16169 net.cpp:100] Creating Layer upsample2
I0116 14:35:36.378245 16169 net.cpp:434] upsample2 <- conv3_1_D
I0116 14:35:36.378249 16169 net.cpp:434] upsample2 <- pool2_mask
I0116 14:35:36.378255 16169 net.cpp:408] upsample2 -> pool2_D
I0116 14:35:36.378262 16169 upsample_layer.cpp:27] Params 'pad_out_{}_' are deprecated. Please declare upsample heigh
t and width useing the upsample_h, upsample_w parameters.
I0116 14:35:36.378290 16169 net.cpp:150] Setting up upsample2
I0116 14:35:36.378295 16169 net.cpp:157] Top shape: 4 128 180 240 (22118400)
I0116 14:35:36.378298 16169 net.cpp:165] Memory required for data: 3193344000
I0116 14:35:36.378300 16169 layer_factory.hpp:77] Creating layer conv2_2_D
I0116 14:35:36.378309 16169 net.cpp:100] Creating Layer conv2_2_D
I0116 14:35:36.378311 16169 net.cpp:434] conv2_2_D <- pool2_D
I0116 14:35:36.378315 16169 net.cpp:408] conv2_2_D -> conv2_2_D
I0116 14:35:36.381589 16169 net.cpp:150] Setting up conv2_2_D
I0116 14:35:36.381598 16169 net.cpp:157] Top shape: 4 128 180 240 (22118400)
I0116 14:35:36.381615 16169 net.cpp:165] Memory required for data: 3281817600
I0116 14:35:36.381621 16169 layer_factory.hpp:77] Creating layer conv2_2_D_bn
I0116 14:35:36.381628 16169 net.cpp:100] Creating Layer conv2_2_D_bn
I0116 14:35:36.381631 16169 net.cpp:434] conv2_2_D_bn <- conv2_2_D
I0116 14:35:36.381638 16169 net.cpp:395] conv2_2_D_bn -> conv2_2_D (in-place)
I0116 14:35:36.381959 16169 net.cpp:150] Setting up conv2_2_D_bn
I0116 14:35:36.381965 16169 net.cpp:157] Top shape: 4 128 180 240 (22118400)
I0116 14:35:36.381968 16169 net.cpp:165] Memory required for data: 3370291200
I0116 14:35:36.381973 16169 layer_factory.hpp:77] Creating layer relu2_2_D
I0116 14:35:36.381978 16169 net.cpp:100] Creating Layer relu2_2_D
I0116 14:35:36.381980 16169 net.cpp:434] relu2_2_D <- conv2_2_D
I0116 14:35:36.381985 16169 net.cpp:395] relu2_2_D -> conv2_2_D (in-place)
I0116 14:35:36.381990 16169 net.cpp:150] Setting up relu2_2_D
I0116 14:35:36.381994 16169 net.cpp:157] Top shape: 4 128 180 240 (22118400)
I0116 14:35:36.381996 16169 net.cpp:165] Memory required for data: 3458764800
I0116 14:35:36.381999 16169 layer_factory.hpp:77] Creating layer conv2_1_D
I0116 14:35:36.382004 16169 net.cpp:100] Creating Layer conv2_1_D
I0116 14:35:36.382007 16169 net.cpp:434] conv2_1_D <- conv2_2_D
I0116 14:35:36.382012 16169 net.cpp:408] conv2_1_D -> conv2_1_D
I0116 14:35:36.384979 16169 net.cpp:150] Setting up conv2_1_D
I0116 14:35:36.384994 16169 net.cpp:157] Top shape: 4 64 180 240 (11059200)
I0116 14:35:36.384997 16169 net.cpp:165] Memory required for data: 3503001600
I0116 14:35:36.385004 16169 layer_factory.hpp:77] Creating layer conv2_1_D_bn
I0116 14:35:36.385010 16169 net.cpp:100] Creating Layer conv2_1_D_bn
I0116 14:35:36.385015 16169 net.cpp:434] conv2_1_D_bn <- conv2_1_D
I0116 14:35:36.385020 16169 net.cpp:395] conv2_1_D_bn -> conv2_1_D (in-place)
I0116 14:35:36.385382 16169 net.cpp:150] Setting up conv2_1_D_bn
I0116 14:35:36.385390 16169 net.cpp:157] Top shape: 4 64 180 240 (11059200)
I0116 14:35:36.385392 16169 net.cpp:165] Memory required for data: 3547238400
I0116 14:35:36.385396 16169 layer_factory.hpp:77] Creating layer relu2_1_D
I0116 14:35:36.385401 16169 net.cpp:100] Creating Layer relu2_1_D
I0116 14:35:36.385403 16169 net.cpp:434] relu2_1_D <- conv2_1_D
I0116 14:35:36.385407 16169 net.cpp:395] relu2_1_D -> conv2_1_D (in-place)
I0116 14:35:36.385411 16169 net.cpp:150] Setting up relu2_1_D
I0116 14:35:36.385414 16169 net.cpp:157] Top shape: 4 64 180 240 (11059200)
I0116 14:35:36.385416 16169 net.cpp:165] Memory required for data: 3591475200
I0116 14:35:36.385418 16169 layer_factory.hpp:77] Creating layer upsample1
I0116 14:35:36.385428 16169 net.cpp:100] Creating Layer upsample1
I0116 14:35:36.385432 16169 net.cpp:434] upsample1 <- conv2_1_D
I0116 14:35:36.385437 16169 net.cpp:434] upsample1 <- pool1_mask
I0116 14:35:36.385443 16169 net.cpp:408] upsample1 -> pool1_D
I0116 14:35:36.385450 16169 upsample_layer.cpp:27] Params 'pad_out_{}_' are deprecated. Please declare upsample heigh
t and width useing the upsample_h, upsample_w parameters.
I0116 14:35:36.385499 16169 net.cpp:150] Setting up upsample1
I0116 14:35:36.385504 16169 net.cpp:157] Top shape: 4 64 360 480 (44236800)
I0116 14:35:36.385507 16169 net.cpp:165] Memory required for data: 3768422400
I0116 14:35:36.385511 16169 layer_factory.hpp:77] Creating layer conv1_2_D
I0116 14:35:36.385519 16169 net.cpp:100] Creating Layer conv1_2_D
I0116 14:35:36.385522 16169 net.cpp:434] conv1_2_D <- pool1_D
I0116 14:35:36.385529 16169 net.cpp:408] conv1_2_D -> conv1_2_D
I0116 14:35:36.386699 16169 net.cpp:150] Setting up conv1_2_D
I0116 14:35:36.386706 16169 net.cpp:157] Top shape: 4 64 360 480 (44236800)
I0116 14:35:36.386709 16169 net.cpp:165] Memory required for data: 3945369600
I0116 14:35:36.386714 16169 layer_factory.hpp:77] Creating layer conv1_2_D_bn
I0116 14:35:36.386720 16169 net.cpp:100] Creating Layer conv1_2_D_bn
I0116 14:35:36.386723 16169 net.cpp:434] conv1_2_D_bn <- conv1_2_D
I0116 14:35:36.386728 16169 net.cpp:395] conv1_2_D_bn -> conv1_2_D (in-place)
I0116 14:35:36.388152 16169 net.cpp:150] Setting up conv1_2_D_bn
I0116 14:35:36.388164 16169 net.cpp:157] Top shape: 4 64 360 480 (44236800)
I0116 14:35:36.388167 16169 net.cpp:165] Memory required for data: 4122316800
I0116 14:35:36.388173 16169 layer_factory.hpp:77] Creating layer relu1_2_D
I0116 14:35:36.388180 16169 net.cpp:100] Creating Layer relu1_2_D
I0116 14:35:36.388182 16169 net.cpp:434] relu1_2_D <- conv1_2_D
I0116 14:35:36.388187 16169 net.cpp:395] relu1_2_D -> conv1_2_D (in-place)
I0116 14:35:36.388192 16169 net.cpp:150] Setting up relu1_2_D
I0116 14:35:36.388196 16169 net.cpp:157] Top shape: 4 64 360 480 (44236800)
I0116 14:35:36.388198 16169 net.cpp:165] Memory required for data: 4299264000
I0116 14:35:36.388201 16169 layer_factory.hpp:77] Creating layer conv1_1_D
I0116 14:35:36.388209 16169 net.cpp:100] Creating Layer conv1_1_D
I0116 14:35:36.388212 16169 net.cpp:434] conv1_1_D <- conv1_2_D
I0116 14:35:36.388217 16169 net.cpp:408] conv1_1_D -> conv1_1_D
I0116 14:35:36.388643 16169 net.cpp:150] Setting up conv1_1_D
I0116 14:35:36.388648 16169 net.cpp:157] Top shape: 4 3 360 480 (2073600)
I0116 14:35:36.388651 16169 net.cpp:165] Memory required for data: 4307558400
I0116 14:35:36.388655 16169 layer_factory.hpp:77] Creating layer conv1_1_D_conv1_1_D_0_split
I0116 14:35:36.388661 16169 net.cpp:100] Creating Layer conv1_1_D_conv1_1_D_0_split
I0116 14:35:36.388664 16169 net.cpp:434] conv1_1_D_conv1_1_D_0_split <- conv1_1_D
I0116 14:35:36.388669 16169 net.cpp:408] conv1_1_D_conv1_1_D_0_split -> conv1_1_D_conv1_1_D_0_split_0
I0116 14:35:36.388674 16169 net.cpp:408] conv1_1_D_conv1_1_D_0_split -> conv1_1_D_conv1_1_D_0_split_1
I0116 14:35:36.388720 16169 net.cpp:150] Setting up conv1_1_D_conv1_1_D_0_split
I0116 14:35:36.388725 16169 net.cpp:157] Top shape: 4 3 360 480 (2073600)
I0116 14:35:36.388730 16169 net.cpp:157] Top shape: 4 3 360 480 (2073600)
I0116 14:35:36.388731 16169 net.cpp:165] Memory required for data: 4324147200
I0116 14:35:36.388734 16169 layer_factory.hpp:77] Creating layer loss
I0116 14:35:36.388741 16169 net.cpp:100] Creating Layer loss
I0116 14:35:36.388743 16169 net.cpp:434] loss <- conv1_1_D_conv1_1_D_0_split_0
I0116 14:35:36.388747 16169 net.cpp:434] loss <- labelB_dataB_1_split_0
I0116 14:35:36.388751 16169 net.cpp:408] loss -> loss
I0116 14:35:36.388758 16169 layer_factory.hpp:77] Creating layer loss
I0116 14:35:36.392516 16169 net.cpp:150] Setting up loss
I0116 14:35:36.392539 16169 net.cpp:157] Top shape: (1)
I0116 14:35:36.392557 16169 net.cpp:160]     with loss weight 1
I0116 14:35:36.392565 16169 net.cpp:165] Memory required for data: 4324147204
I0116 14:35:36.392572 16169 layer_factory.hpp:77] Creating layer accuracy
I0116 14:35:36.392582 16169 net.cpp:100] Creating Layer accuracy
I0116 14:35:36.392590 16169 net.cpp:434] accuracy <- conv1_1_D_conv1_1_D_0_split_1
I0116 14:35:36.392597 16169 net.cpp:434] accuracy <- labelB_dataB_1_split_1
I0116 14:35:36.392604 16169 net.cpp:408] accuracy -> accuracy
I0116 14:35:36.392612 16169 net.cpp:408] accuracy -> per_class_accuracy
I0116 14:35:36.392740 16169 net.cpp:150] Setting up accuracy
I0116 14:35:36.392748 16169 net.cpp:157] Top shape: (1)
I0116 14:35:36.392753 16169 net.cpp:157] Top shape: 3 (3)
I0116 14:35:36.392756 16169 net.cpp:165] Memory required for data: 4324147220
I0116 14:35:36.392760 16169 net.cpp:228] accuracy does not need backward computation.
I0116 14:35:36.392765 16169 net.cpp:226] loss needs backward computation.
I0116 14:35:36.392769 16169 net.cpp:226] conv1_1_D_conv1_1_D_0_split needs backward computation.
I0116 14:35:36.392773 16169 net.cpp:226] conv1_1_D needs backward computation.
…
